…
2022-04-18 10:43:41.290776: I tensorflow/core/common_runtime/gpu/gpu_device.cc:1525] Created device /job:localhost/replica:0/task:0/device:GPU:2 with 10417 MB memory:  -> device: 2, name: NVIDIA GeForce GTX 1080 Ti, pci bus id: 0000:84:00.0, compute capability: 6.1
2022-04-18 10:43:41.292264: I tensorflow/core/common_runtime/gpu/gpu_device.cc:1525] Created device /job:localhost/replica:0/task:0/device:GPU:3 with 10417 MB memory:  -> device: 3, name: NVIDIA GeForce GTX 1080 Ti, pci bus id: 0000:8a:00.0, compute capability: 6.1
Model: "sequential"
_________________________________________________________________
 Layer (type)                Output Shape              Param #   
=================================================================
 conv2d (Conv2D)             (None, 64, 1024, 32)      320       
                                                                 
 batch_normalization (BatchN  (None, 64, 1024, 32)     128       
 ormalization)                                                   
                                                                 
 leaky_re_lu (LeakyReLU)     (None, 64, 1024, 32)      0         
                                                                 
 max_pooling2d (MaxPooling2D  (None, 32, 512, 32)      0         
 )                                                               
                                                                 
 conv2d_1 (Conv2D)           (None, 32, 512, 64)       18496     
                                                                 
 batch_normalization_1 (Batc  (None, 32, 512, 64)      256       
 hNormalization)                                                 
                                                                 
 leaky_re_lu_1 (LeakyReLU)   (None, 32, 512, 64)       0         
                                                                 
 max_pooling2d_1 (MaxPooling  (None, 16, 256, 64)      0         
 2D)                                                             
                                                                 
 conv2d_2 (Conv2D)           (None, 16, 256, 64)       36928     
                                                                 
 batch_normalization_2 (Batc  (None, 16, 256, 64)      256       
 hNormalization)                                                 
                                                                 
 leaky_re_lu_2 (LeakyReLU)   (None, 16, 256, 64)       0         
                                                                 
 max_pooling2d_2 (MaxPooling  (None, 8, 128, 64)       0         
 2D)                                                             
                                                                 
 conv2d_3 (Conv2D)           (None, 8, 128, 64)        36928     
                                                                 
 batch_normalization_3 (Batc  (None, 8, 128, 64)       256       
 hNormalization)                                                 
                                                                 
 leaky_re_lu_3 (LeakyReLU)   (None, 8, 128, 64)        0         
                                                                 
 max_pooling2d_3 (MaxPooling  (None, 4, 64, 64)        0         
 2D)                                                             
                                                                 
 flatten (Flatten)           (None, 16384)             0         
                                                                 
 dense (Dense)               (None, 16384)             268451840 
                                                                 
 dense_1 (Dense)             (None, 16384)             268451840 
                                                                 
 reshape (Reshape)           (None, 4, 64, 64)         0         
                                                                 
 conv2d_4 (Conv2D)           (None, 4, 64, 64)         36928     
                                                                 
 batch_normalization_4 (Batc  (None, 4, 64, 64)        256       
 hNormalization)                                                 
                                                                 
 leaky_re_lu_4 (LeakyReLU)   (None, 4, 64, 64)         0         
                                                                 
 up_sampling2d (UpSampling2D  (None, 8, 128, 64)       0         
 )                                                               
                                                                 
 conv2d_5 (Conv2D)           (None, 8, 128, 64)        36928     
                                                                 
 batch_normalization_5 (Batc  (None, 8, 128, 64)       256       
 hNormalization)                                                 
                                                                 
 leaky_re_lu_5 (LeakyReLU)   (None, 8, 128, 64)        0         
                                                                 
 up_sampling2d_1 (UpSampling  (None, 16, 256, 64)      0         
 2D)                                                             
                                                                 
 conv2d_6 (Conv2D)           (None, 16, 256, 64)       36928     
                                                                 
 batch_normalization_6 (Batc  (None, 16, 256, 64)      256       
 hNormalization)                                                 
                                                                 
 leaky_re_lu_6 (LeakyReLU)   (None, 16, 256, 64)       0         
                                                                 
 up_sampling2d_2 (UpSampling  (None, 32, 512, 64)      0         
 2D)                                                             
                                                                 
 conv2d_7 (Conv2D)           (None, 32, 512, 32)       18464     
                                                                 
 batch_normalization_7 (Batc  (None, 32, 512, 32)      128       
 hNormalization)                                                 
                                                                 
 leaky_re_lu_7 (LeakyReLU)   (None, 32, 512, 32)       0         
                                                                 
 up_sampling2d_3 (UpSampling  (None, 64, 1024, 32)     0         
 2D)                                                             
                                                                 
 conv2d_8 (Conv2D)           (None, 64, 1024, 1)       289       
                                                                 
=================================================================
Total params: 537,127,681
Trainable params: 537,126,785
Non-trainable params: 896
_________________________________________________________________
None
Epoch 1/500
2022-04-18 10:43:45.574026: I tensorflow/stream_executor/cuda/cuda_dnn.cc:368] Loaded cuDNN version 8101
…
