…
2022-04-24 12:12:08.928542: I tensorflow/core/common_runtime/gpu/gpu_device.cc:1525] Created device /job:localhost/replica:0/task:0/device:GPU:6 with 10417 MB memory:  -> device: 6, name: GeForce GTX 1080 Ti, pci bus id: 0000:b1:00.0, compute capability: 6.1
2022-04-24 12:12:08.930800: I tensorflow/core/common_runtime/gpu/gpu_device.cc:1525] Created device /job:localhost/replica:0/task:0/device:GPU:7 with 10417 MB memory:  -> device: 7, name: GeForce GTX 1080 Ti, pci bus id: 0000:b2:00.0, compute capability: 6.1
Model: "sequential"
_________________________________________________________________
 Layer (type)                Output Shape              Param #   
=================================================================
 conv2d (Conv2D)             (None, 32, 512, 32)       832       
                                                                 
 max_pooling2d (MaxPooling2D  (None, 16, 256, 32)      0         
 )                                                               
                                                                 
 conv2d_1 (Conv2D)           (None, 16, 256, 64)       18496     
                                                                 
 max_pooling2d_1 (MaxPooling  (None, 8, 128, 64)       0         
 2D)                                                             
                                                                 
 conv2d_2 (Conv2D)           (None, 8, 128, 64)        36928     
                                                                 
 max_pooling2d_2 (MaxPooling  (None, 4, 64, 64)        0         
 2D)                                                             
                                                                 
 flatten (Flatten)           (None, 16384)             0         
                                                                 
 dense (Dense)               (None, 16384)             268451840 
                                                                 
 dense_1 (Dense)             (None, 16384)             268451840 
                                                                 
 reshape (Reshape)           (None, 4, 64, 64)         0         
                                                                 
 conv2d_3 (Conv2D)           (None, 4, 64, 64)         36928     
                                                                 
 up_sampling2d (UpSampling2D  (None, 8, 128, 64)       0         
 )                                                               
                                                                 
 conv2d_4 (Conv2D)           (None, 8, 128, 64)        36928     
                                                                 
 up_sampling2d_1 (UpSampling  (None, 16, 256, 64)      0         
 2D)                                                             
                                                                 
 conv2d_5 (Conv2D)           (None, 16, 256, 64)       36928     
                                                                 
 up_sampling2d_2 (UpSampling  (None, 32, 512, 64)      0         
 2D)                                                             
                                                                 
 conv2d_6 (Conv2D)           (None, 32, 512, 64)       36928     
                                                                 
 up_sampling2d_3 (UpSampling  (None, 64, 1024, 64)     0         
 2D)                                                             
                                                                 
 conv2d_7 (Conv2D)           (None, 32, 512, 32)       51232     
                                                                 
 up_sampling2d_4 (UpSampling  (None, 64, 1024, 32)     0         
 2D)                                                             
                                                                 
 conv2d_8 (Conv2D)           (None, 64, 1024, 1)       289       
                                                                 
=================================================================
Total params: 537,159,169
Trainable params: 537,159,169
Non-trainable params: 0
_________________________________________________________________
None
Epoch 1/50
2022-04-24 12:12:14.624840: I tensorflow/stream_executor/cuda/cuda_dnn.cc:368] Loaded cuDNN version 8101
…
