…
2022-04-04 17:35:16.629777: I tensorflow/core/common_runtime/gpu/gpu_device.cc:1525] Created device /job:localhost/replica:0/task:0/device:GPU:2 with 10417 MB memory:  -> device: 2, name: GeForce GTX 1080 Ti, pci bus id: 0000:84:00.0, compute capability: 6.1
2022-04-04 17:35:16.631288: I tensorflow/core/common_runtime/gpu/gpu_device.cc:1525] Created device /job:localhost/replica:0/task:0/device:GPU:3 with 10417 MB memory:  -> device: 3, name: GeForce GTX 1080 Ti, pci bus id: 0000:8a:00.0, compute capability: 6.1
Model: "sequential"
_________________________________________________________________
 Layer (type)                Output Shape              Param #   
=================================================================
 conv2d (Conv2D)             (None, 64, 1024, 64)      640       
                                                                 
 max_pooling2d (MaxPooling2D  (None, 32, 512, 64)      0         
 )                                                               
                                                                 
 conv2d_1 (Conv2D)           (None, 32, 512, 32)       18464     
                                                                 
 max_pooling2d_1 (MaxPooling  (None, 16, 256, 32)      0         
 2D)                                                             
                                                                 
 conv2d_2 (Conv2D)           (None, 16, 256, 16)       4624      
                                                                 
 max_pooling2d_2 (MaxPooling  (None, 8, 128, 16)       0         
 2D)                                                             
                                                                 
 flatten (Flatten)           (None, 16384)             0         
                                                                 
 dense (Dense)               (None, 4096)              67112960  
                                                                 
 dense_1 (Dense)             (None, 4096)              16781312  
                                                                 
 reshape (Reshape)           (None, 8, 128, 4)         0         
                                                                 
 conv2d_3 (Conv2D)           (None, 8, 128, 16)        592       
                                                                 
 up_sampling2d (UpSampling2D  (None, 16, 256, 16)      0         
 )                                                               
                                                                 
 conv2d_4 (Conv2D)           (None, 16, 256, 32)       4640      
                                                                 
 up_sampling2d_1 (UpSampling  (None, 32, 512, 32)      0         
 2D)                                                             
                                                                 
 conv2d_5 (Conv2D)           (None, 32, 512, 64)       18496     
                                                                 
 up_sampling2d_2 (UpSampling  (None, 64, 1024, 64)     0         
 2D)                                                             
                                                                 
 conv2d_6 (Conv2D)           (None, 64, 1024, 1)       577       
                                                                 
=================================================================
Total params: 83,942,305
Trainable params: 83,942,305
Non-trainable params: 0
_________________________________________________________________
None
Epoch 1/20
2022-04-04 17:35:21.542257: I tensorflow/stream_executor/cuda/cuda_dnn.cc:368] Loaded cuDNN version 8101
…
