…
2022-04-04 18:19:14.855129: I tensorflow/core/common_runtime/gpu/gpu_device.cc:1525] Created device /job:localhost/replica:0/task:0/device:GPU:2 with 38420 MB memory:  -> device: 2, name: NVIDIA A100-PCIE-40GB, pci bus id: 0000:81:00.0, compute capability: 8.0
2022-04-04 18:19:14.857038: I tensorflow/core/common_runtime/gpu/gpu_device.cc:1525] Created device /job:localhost/replica:0/task:0/device:GPU:3 with 38420 MB memory:  -> device: 3, name: NVIDIA A100-PCIE-40GB, pci bus id: 0000:c1:00.0, compute capability: 8.0
Model: "sequential"
_________________________________________________________________
 Layer (type)                Output Shape              Param #   
=================================================================
 conv2d (Conv2D)             (None, 64, 1024, 64)      640       
                                                                 
 max_pooling2d (MaxPooling2D  (None, 32, 512, 64)      0         
 )                                                               
                                                                 
 conv2d_1 (Conv2D)           (None, 32, 512, 64)       36928     
                                                                 
 max_pooling2d_1 (MaxPooling  (None, 16, 256, 64)      0         
 2D)                                                             
                                                                 
 conv2d_2 (Conv2D)           (None, 16, 256, 64)       36928     
                                                                 
 max_pooling2d_2 (MaxPooling  (None, 8, 128, 64)       0         
 2D)                                                             
                                                                 
 conv2d_3 (Conv2D)           (None, 8, 128, 32)        18464     
                                                                 
 max_pooling2d_3 (MaxPooling  (None, 4, 64, 32)        0         
 2D)                                                             
                                                                 
 flatten (Flatten)           (None, 8192)              0         
                                                                 
 dense (Dense)               (None, 8192)              67117056  
                                                                 
 dense_1 (Dense)             (None, 8192)              67117056  
                                                                 
 reshape (Reshape)           (None, 4, 64, 32)         0         
                                                                 
 conv2d_4 (Conv2D)           (None, 4, 64, 32)         9248      
                                                                 
 up_sampling2d (UpSampling2D  (None, 8, 128, 32)       0         
 )                                                               
                                                                 
 conv2d_5 (Conv2D)           (None, 8, 128, 64)        18496     
                                                                 
 up_sampling2d_1 (UpSampling  (None, 16, 256, 64)      0         
 2D)                                                             
                                                                 
 conv2d_6 (Conv2D)           (None, 16, 256, 64)       36928     
                                                                 
 up_sampling2d_2 (UpSampling  (None, 32, 512, 64)      0         
 2D)                                                             
                                                                 
 conv2d_7 (Conv2D)           (None, 32, 512, 64)       36928     
                                                                 
 up_sampling2d_3 (UpSampling  (None, 64, 1024, 64)     0         
 2D)                                                             
                                                                 
 conv2d_8 (Conv2D)           (None, 64, 1024, 1)       577       
                                                                 
=================================================================
Total params: 134,429,249
Trainable params: 134,429,249
Non-trainable params: 0
_________________________________________________________________
None
Epoch 1/20
2022-04-04 18:19:17.845701: I tensorflow/stream_executor/cuda/cuda_dnn.cc:368] Loaded cuDNN version 8101
…
