…
2022-04-05 18:14:15.305314: I tensorflow/core/common_runtime/gpu/gpu_device.cc:1525] Created device /job:localhost/replica:0/task:0/device:GPU:2 with 38420 MB memory:  -> device: 2, name: NVIDIA A100-PCIE-40GB, pci bus id: 0000:81:00.0, compute capability: 8.0
2022-04-05 18:14:15.307257: I tensorflow/core/common_runtime/gpu/gpu_device.cc:1525] Created device /job:localhost/replica:0/task:0/device:GPU:3 with 38420 MB memory:  -> device: 3, name: NVIDIA A100-PCIE-40GB, pci bus id: 0000:c1:00.0, compute capability: 8.0
Model: "sequential"
_________________________________________________________________
 Layer (type)                Output Shape              Param #   
=================================================================
 conv2d (Conv2D)             (None, 64, 1024, 64)      1664      
                                                                 
 max_pooling2d (MaxPooling2D  (None, 32, 512, 64)      0         
 )                                                               
                                                                 
 conv2d_1 (Conv2D)           (None, 32, 512, 64)       36928     
                                                                 
 max_pooling2d_1 (MaxPooling  (None, 16, 256, 64)      0         
 2D)                                                             
                                                                 
 conv2d_2 (Conv2D)           (None, 16, 256, 32)       18464     
                                                                 
 max_pooling2d_2 (MaxPooling  (None, 8, 128, 32)       0         
 2D)                                                             
                                                                 
 conv2d_3 (Conv2D)           (None, 8, 128, 32)        9248      
                                                                 
 max_pooling2d_3 (MaxPooling  (None, 4, 64, 32)        0         
 2D)                                                             
                                                                 
 conv2d_4 (Conv2D)           (None, 4, 64, 32)         9248      
                                                                 
 up_sampling2d (UpSampling2D  (None, 8, 128, 32)       0         
 )                                                               
                                                                 
 conv2d_5 (Conv2D)           (None, 8, 128, 32)        9248      
                                                                 
 up_sampling2d_1 (UpSampling  (None, 16, 256, 32)      0         
 2D)                                                             
                                                                 
 conv2d_6 (Conv2D)           (None, 16, 256, 64)       18496     
                                                                 
 up_sampling2d_2 (UpSampling  (None, 32, 512, 64)      0         
 2D)                                                             
                                                                 
 conv2d_7 (Conv2D)           (None, 32, 512, 64)       102464    
                                                                 
 up_sampling2d_3 (UpSampling  (None, 64, 1024, 64)     0         
 2D)                                                             
                                                                 
 conv2d_8 (Conv2D)           (None, 64, 1024, 1)       577       
                                                                 
=================================================================
Total params: 206,337
Trainable params: 206,337
Non-trainable params: 0
_________________________________________________________________
None
Epoch 1/100
2022-04-05 18:14:17.880706: I tensorflow/stream_executor/cuda/cuda_dnn.cc:368] Loaded cuDNN version 8101
20/20 [==============================] - 15s 414ms/step - loss: 0.0329 - val_loss: 0.0205
…
2022-04-05 17:55:18.846391: I tensorflow/core/common_runtime/gpu/gpu_device.cc:1525] Created device /job:localhost/replica:0/task:0/device:GPU:2 with 38420 MB memory:  -> device: 2, name: NVIDIA A100-PCIE-40GB, pci bus id: 0000:81:00.0, compute capability: 8.0
2022-04-05 17:55:18.848303: I tensorflow/core/common_runtime/gpu/gpu_device.cc:1525] Created device /job:localhost/replica:0/task:0/device:GPU:3 with 38420 MB memory:  -> device: 3, name: NVIDIA A100-PCIE-40GB, pci bus id: 0000:c1:00.0, compute capability: 8.0
Model: "sequential"
_________________________________________________________________
 Layer (type)                Output Shape              Param #   
=================================================================
 conv2d (Conv2D)             (None, 64, 1024, 64)      640       
                                                                 
 max_pooling2d (MaxPooling2D  (None, 32, 512, 64)      0         
 )                                                               
                                                                 
 conv2d_1 (Conv2D)           (None, 32, 512, 64)       36928     
                                                                 
 max_pooling2d_1 (MaxPooling  (None, 16, 256, 64)      0         
 2D)                                                             
                                                                 
 conv2d_2 (Conv2D)           (None, 16, 256, 32)       18464     
                                                                 
 max_pooling2d_2 (MaxPooling  (None, 8, 128, 32)       0         
 2D)                                                             
                                                                 
 conv2d_3 (Conv2D)           (None, 8, 128, 32)        9248      
                                                                 
 max_pooling2d_3 (MaxPooling  (None, 4, 64, 32)        0         
 2D)                                                             
                                                                 
 conv2d_4 (Conv2D)           (None, 4, 64, 32)         9248      
                                                                 
 max_pooling2d_4 (MaxPooling  (None, 2, 32, 32)        0         
 2D)                                                             
                                                                 
 conv2d_5 (Conv2D)           (None, 2, 32, 32)         9248      
                                                                 
 up_sampling2d (UpSampling2D  (None, 4, 64, 32)        0         
 )                                                               
                                                                 
 conv2d_6 (Conv2D)           (None, 4, 64, 32)         9248      
                                                                 
 up_sampling2d_1 (UpSampling  (None, 8, 128, 32)       0         
 2D)                                                             
                                                                 
 conv2d_7 (Conv2D)           (None, 8, 128, 32)        9248      
                                                                 
 up_sampling2d_2 (UpSampling  (None, 16, 256, 32)      0         
 2D)                                                             
                                                                 
 conv2d_8 (Conv2D)           (None, 16, 256, 64)       18496     
                                                                 
 up_sampling2d_3 (UpSampling  (None, 32, 512, 64)      0         
 2D)                                                             
                                                                 
 conv2d_9 (Conv2D)           (None, 32, 512, 64)       36928     
                                                                 
 up_sampling2d_4 (UpSampling  (None, 64, 1024, 64)     0         
 2D)                                                             
                                                                 
 conv2d_10 (Conv2D)          (None, 64, 1024, 1)       577       
                                                                 
=================================================================
Total params: 158,273
Trainable params: 158,273
Non-trainable params: 0
_________________________________________________________________
None
Epoch 1/100
2022-04-05 17:55:21.418150: I tensorflow/stream_executor/cuda/cuda_dnn.cc:368] Loaded cuDNN version 8101
20/20 [==============================] - 13s 397ms/step - loss: 0.6495 - val_loss: 0.6311
…
2022-04-05 17:07:05.967899: I tensorflow/core/common_runtime/gpu/gpu_device.cc:1525] Created device /job:localhost/replica:0/task:0/device:GPU:2 with 38420 MB memory:  -> device: 2, name: NVIDIA A100-PCIE-40GB, pci bus id: 0000:81:00.0, compute capability: 8.0
2022-04-05 17:07:05.969705: I tensorflow/core/common_runtime/gpu/gpu_device.cc:1525] Created device /job:localhost/replica:0/task:0/device:GPU:3 with 38420 MB memory:  -> device: 3, name: NVIDIA A100-PCIE-40GB, pci bus id: 0000:c1:00.0, compute capability: 8.0
Model: "sequential"
_________________________________________________________________
 Layer (type)                Output Shape              Param #   
=================================================================
 conv2d (Conv2D)             (None, 64, 1024, 128)     1280      
                                                                 
 max_pooling2d (MaxPooling2D  (None, 32, 512, 128)     0         
 )                                                               
                                                                 
 conv2d_1 (Conv2D)           (None, 32, 512, 64)       73792     
                                                                 
 max_pooling2d_1 (MaxPooling  (None, 16, 256, 64)      0         
 2D)                                                             
                                                                 
 conv2d_2 (Conv2D)           (None, 16, 256, 32)       18464     
                                                                 
 max_pooling2d_2 (MaxPooling  (None, 8, 128, 32)       0         
 2D)                                                             
                                                                 
 conv2d_3 (Conv2D)           (None, 8, 128, 32)        9248      
                                                                 
 up_sampling2d (UpSampling2D  (None, 16, 256, 32)      0         
 )                                                               
                                                                 
 conv2d_4 (Conv2D)           (None, 16, 256, 64)       18496     
                                                                 
 up_sampling2d_1 (UpSampling  (None, 32, 512, 64)      0         
 2D)                                                             
                                                                 
 conv2d_5 (Conv2D)           (None, 32, 512, 128)      73856     
                                                                 
 up_sampling2d_2 (UpSampling  (None, 64, 1024, 128)    0         
 2D)                                                             
                                                                 
 conv2d_6 (Conv2D)           (None, 64, 1024, 1)       1153      
                                                                 
=================================================================
Total params: 196,289
Trainable params: 196,289
Non-trainable params: 0
_________________________________________________________________
None
Epoch 1/50
2022-04-05 17:07:09.324168: I tensorflow/stream_executor/cuda/cuda_dnn.cc:368] Loaded cuDNN version 8101
20/20 [==============================] - 21s 758ms/step - loss: 0.6480 - val_loss: 0.6184
…
2022-04-05 16:36:25.746732: I tensorflow/core/common_runtime/gpu/gpu_device.cc:1525] Created device /job:localhost/replica:0/task:0/device:GPU:2 with 38420 MB memory:  -> device: 2, name: NVIDIA A100-PCIE-40GB, pci bus id: 0000:81:00.0, compute capability: 8.0
2022-04-05 16:36:25.748628: I tensorflow/core/common_runtime/gpu/gpu_device.cc:1525] Created device /job:localhost/replica:0/task:0/device:GPU:3 with 38420 MB memory:  -> device: 3, name: NVIDIA A100-PCIE-40GB, pci bus id: 0000:c1:00.0, compute capability: 8.0
Model: "sequential"
_________________________________________________________________
 Layer (type)                Output Shape              Param #   
=================================================================
 conv2d (Conv2D)             (None, 64, 1024, 64)      640       
                                                                 
 max_pooling2d (MaxPooling2D  (None, 32, 512, 64)      0         
 )                                                               
                                                                 
 conv2d_1 (Conv2D)           (None, 32, 512, 32)       18464     
                                                                 
 max_pooling2d_1 (MaxPooling  (None, 16, 256, 32)      0         
 2D)                                                             
                                                                 
 conv2d_2 (Conv2D)           (None, 16, 256, 32)       9248      
                                                                 
 max_pooling2d_2 (MaxPooling  (None, 8, 128, 32)       0         
 2D)                                                             
                                                                 
 conv2d_3 (Conv2D)           (None, 8, 128, 32)        9248      
                                                                 
 up_sampling2d (UpSampling2D  (None, 16, 256, 32)      0         
 )                                                               
                                                                 
 conv2d_4 (Conv2D)           (None, 16, 256, 32)       9248      
                                                                 
 up_sampling2d_1 (UpSampling  (None, 32, 512, 32)      0         
 2D)                                                             
                                                                 
 conv2d_5 (Conv2D)           (None, 32, 512, 64)       18496     
                                                                 
 up_sampling2d_2 (UpSampling  (None, 64, 1024, 64)     0         
 2D)                                                             
                                                                 
 conv2d_6 (Conv2D)           (None, 64, 1024, 1)       577       
                                                                 
=================================================================
Total params: 65,921
Trainable params: 65,921
Non-trainable params: 0
_________________________________________________________________
None
Epoch 1/20
2022-04-05 16:36:28.008649: I tensorflow/stream_executor/cuda/cuda_dnn.cc:368] Loaded cuDNN version 8101
20/20 [==============================] - 11s 320ms/step - loss: 0.6531 - val_loss: 0.6286
…
2022-04-05 16:31:12.984453: I tensorflow/core/common_runtime/gpu/gpu_device.cc:1525] Created device /job:localhost/replica:0/task:0/device:GPU:2 with 38420 MB memory:  -> device: 2, name: NVIDIA A100-PCIE-40GB, pci bus id: 0000:81:00.0, compute capability: 8.0
2022-04-05 16:31:12.986226: I tensorflow/core/common_runtime/gpu/gpu_device.cc:1525] Created device /job:localhost/replica:0/task:0/device:GPU:3 with 38420 MB memory:  -> device: 3, name: NVIDIA A100-PCIE-40GB, pci bus id: 0000:c1:00.0, compute capability: 8.0
Model: "sequential"
_________________________________________________________________
 Layer (type)                Output Shape              Param #   
=================================================================
 conv2d (Conv2D)             (None, 64, 1024, 64)      640       
                                                                 
 max_pooling2d (MaxPooling2D  (None, 32, 512, 64)      0         
 )                                                               
                                                                 
 conv2d_1 (Conv2D)           (None, 32, 512, 32)       18464     
                                                                 
 max_pooling2d_1 (MaxPooling  (None, 16, 256, 32)      0         
 2D)                                                             
                                                                 
 conv2d_2 (Conv2D)           (None, 16, 256, 32)       9248      
                                                                 
 up_sampling2d (UpSampling2D  (None, 32, 512, 32)      0         
 )                                                               
                                                                 
 conv2d_3 (Conv2D)           (None, 32, 512, 64)       18496     
                                                                 
 up_sampling2d_1 (UpSampling  (None, 64, 1024, 64)     0         
 2D)                                                             
                                                                 
 conv2d_4 (Conv2D)           (None, 64, 1024, 1)       577       
                                                                 
=================================================================
Total params: 47,425
Trainable params: 47,425
Non-trainable params: 0
_________________________________________________________________
None
Epoch 1/20
2022-04-05 16:31:14.996376: I tensorflow/stream_executor/cuda/cuda_dnn.cc:368] Loaded cuDNN version 8101
20/20 [==============================] - 11s 308ms/step - loss: 0.6502 - val_loss: 0.6233
…
  # history = autoencoder.fit(training_generator, validation_data=validation_generator, epochs=20, use_multiprocessing=True)

  autoencoder.save("pcdModel")


if __name__ == '__main__':




------------------------------------------------------------------------
V1 0.56 Loss

38420 MB memory:  -> device: 3, name: NVIDIA A100-PCIE-40GB, pci bus id: 0000:c1:00.0, compute capability: 8.0
Model: "sequential"
_________________________________________________________________
 Layer (type)                Output Shape              Param #   
=================================================================
 conv2d (Conv2D)             (None, 64, 1024, 64)      640       
                                                                 
 max_pooling2d (MaxPooling2D  (None, 32, 512, 64)      0         
 )                                                               
                                                                 
 conv2d_1 (Conv2D)           (None, 32, 512, 32)       18464     
                                                                 
 max_pooling2d_1 (MaxPooling  (None, 16, 256, 32)      0         
 2D)                                                             
                                                                 
 conv2d_2 (Conv2D)           (None, 16, 256, 16)       4624      
                                                                 
 max_pooling2d_2 (MaxPooling  (None, 8, 128, 16)       0         
 2D)                                                             
                                                                 
 conv2d_3 (Conv2D)           (None, 8, 128, 8)         1160      
                                                                 
 max_pooling2d_3 (MaxPooling  (None, 4, 64, 8)         0         
 2D)                                                             
                                                                 
 flatten (Flatten)           (None, 2048)              0         
                                                                 
 dense (Dense)               (None, 4096)              8392704   
                                                                 
 dense_1 (Dense)             (None, 4096)              16781312  
                                                                 
 reshape (Reshape)           (None, 4, 64, 16)         0         
                                                                 
 conv2d_4 (Conv2D)           (None, 4, 64, 8)          1160      
                                                                 
 up_sampling2d (UpSampling2D  (None, 8, 128, 8)        0         
 )                                                               
                                                                 
 conv2d_5 (Conv2D)           (None, 8, 128, 16)        1168      
                                                                 
 up_sampling2d_1 (UpSampling  (None, 16, 256, 16)      0         
 2D)                                                             
                                                                 
 conv2d_6 (Conv2D)           (None, 16, 256, 32)       4640      
                                                                 
 up_sampling2d_2 (UpSampling  (None, 32, 512, 32)      0         
 2D)                                                             
                                                                 
 conv2d_7 (Conv2D)           (None, 32, 512, 64)       18496     
                                                                 
 up_sampling2d_3 (UpSampling  (None, 64, 1024, 64)     0         
 2D)                                                             
                                                                 
 conv2d_8 (Conv2D)           (None, 64, 1024, 1)       577       
                                                                 
=================================================================
Total params: 25,224,945
Trainable params: 25,224,945
Non-trainable params: 0
_________________________________________________________________
None
Epoch 1/20
2022-04-05 16:08:17.363890: I tensorflow/stream_executor/cuda/cuda_dnn.cc:368] Loaded cuDNN version 8101
…
