…
2022-04-29 18:27:07.289529: I tensorflow/core/common_runtime/gpu/gpu_device.cc:1525] Created device /job:localhost/replica:0/task:0/device:GPU:2 with 6674 MB memory:  -> device: 2, name: Quadro RTX 4000, pci bus id: 0000:b1:00.0, compute capability: 7.5
2022-04-29 18:27:07.290539: I tensorflow/core/common_runtime/gpu/gpu_device.cc:1525] Created device /job:localhost/replica:0/task:0/device:GPU:3 with 6674 MB memory:  -> device: 3, name: Quadro RTX 4000, pci bus id: 0000:da:00.0, compute capability: 7.5
Model: "sequential"
_________________________________________________________________
 Layer (type)                Output Shape              Param #   
=================================================================
 conv2d (Conv2D)             (None, 16, 256, 64)       7808      
                                                                 
 batch_normalization (BatchN  (None, 16, 256, 64)      256       
 ormalization)                                                   
                                                                 
 max_pooling2d (MaxPooling2D  (None, 8, 128, 64)       0         
 )                                                               
                                                                 
 conv2d_1 (Conv2D)           (None, 8, 128, 256)       409856    
                                                                 
 batch_normalization_1 (Batc  (None, 8, 128, 256)      1024      
 hNormalization)                                                 
                                                                 
 max_pooling2d_1 (MaxPooling  (None, 4, 64, 256)       0         
 2D)                                                             
                                                                 
 conv2d_2 (Conv2D)           (None, 4, 64, 384)        885120    
                                                                 
 batch_normalization_2 (Batc  (None, 4, 64, 384)       1536      
 hNormalization)                                                 
                                                                 
 conv2d_3 (Conv2D)           (None, 4, 64, 256)        884992    
                                                                 
 batch_normalization_3 (Batc  (None, 4, 64, 256)       1024      
 hNormalization)                                                 
                                                                 
 conv2d_4 (Conv2D)           (None, 4, 64, 128)        295040    
                                                                 
 batch_normalization_4 (Batc  (None, 4, 64, 128)       512       
 hNormalization)                                                 
                                                                 
 max_pooling2d_2 (MaxPooling  (None, 2, 32, 128)       0         
 2D)                                                             
                                                                 
 flatten (Flatten)           (None, 8192)              0         
                                                                 
 dense (Dense)               (None, 8192)              67117056  
                                                                 
 dense_1 (Dense)             (None, 8192)              67117056  
                                                                 
 reshape (Reshape)           (None, 2, 32, 128)        0         
                                                                 
 conv2d_5 (Conv2D)           (None, 2, 32, 128)        147584    
                                                                 
 batch_normalization_5 (Batc  (None, 2, 32, 128)       512       
 hNormalization)                                                 
                                                                 
 up_sampling2d (UpSampling2D  (None, 4, 64, 128)       0         
 )                                                               
                                                                 
 conv2d_6 (Conv2D)           (None, 4, 64, 256)        295168    
                                                                 
 batch_normalization_6 (Batc  (None, 4, 64, 256)       1024      
 hNormalization)                                                 
                                                                 
 up_sampling2d_1 (UpSampling  (None, 8, 128, 256)      0         
 2D)                                                             
                                                                 
 conv2d_7 (Conv2D)           (None, 8, 128, 384)       885120    
                                                                 
 batch_normalization_7 (Batc  (None, 8, 128, 384)      1536      
 hNormalization)                                                 
                                                                 
 up_sampling2d_2 (UpSampling  (None, 16, 256, 384)     0         
 2D)                                                             
                                                                 
 conv2d_8 (Conv2D)           (None, 16, 256, 256)      2457856   
                                                                 
 batch_normalization_8 (Batc  (None, 16, 256, 256)     1024      
 hNormalization)                                                 
                                                                 
 up_sampling2d_3 (UpSampling  (None, 32, 512, 256)     0         
 2D)                                                             
                                                                 
 conv2d_9 (Conv2D)           (None, 32, 512, 64)       1982528   
                                                                 
 batch_normalization_9 (Batc  (None, 32, 512, 64)      256       
 hNormalization)                                                 
                                                                 
 up_sampling2d_4 (UpSampling  (None, 64, 1024, 64)     0         
 2D)                                                             
                                                                 
 conv2d_10 (Conv2D)          (None, 64, 1024, 1)       577       
                                                                 
=================================================================
Total params: 142,494,465
Trainable params: 142,490,113
Non-trainable params: 4,352
_________________________________________________________________
None
Epoch 1/100
2022-04-29 18:27:13.016746: I tensorflow/stream_executor/cuda/cuda_dnn.cc:368] Loaded cuDNN version 8101
…
