…
2022-04-15 17:02:45.011227: I tensorflow/core/common_runtime/gpu/gpu_device.cc:1525] Created device /job:localhost/replica:0/task:0/device:GPU:2 with 10417 MB memory:  -> device: 2, name: GeForce GTX 1080 Ti, pci bus id: 0000:84:00.0, compute capability: 6.1
2022-04-15 17:02:45.012295: I tensorflow/core/common_runtime/gpu/gpu_device.cc:1525] Created device /job:localhost/replica:0/task:0/device:GPU:3 with 10417 MB memory:  -> device: 3, name: GeForce GTX 1080 Ti, pci bus id: 0000:8a:00.0, compute capability: 6.1
Model: "sequential"
_________________________________________________________________
 Layer (type)                Output Shape              Param #   
=================================================================
 conv2d (Conv2D)             (None, 64, 64, 16)        160       
                                                                 
 max_pooling2d (MaxPooling2D  (None, 32, 32, 16)       0         
 )                                                               
                                                                 
 conv2d_1 (Conv2D)           (None, 32, 32, 8)         1160      
                                                                 
 max_pooling2d_1 (MaxPooling  (None, 16, 16, 8)        0         
 2D)                                                             
                                                                 
 conv2d_2 (Conv2D)           (None, 16, 16, 8)         584       
                                                                 
 max_pooling2d_2 (MaxPooling  (None, 8, 8, 8)          0         
 2D)                                                             
                                                                 
 conv2d_3 (Conv2D)           (None, 8, 8, 8)           584       
                                                                 
 max_pooling2d_3 (MaxPooling  (None, 4, 4, 8)          0         
 2D)                                                             
                                                                 
 flatten (Flatten)           (None, 128)               0         
                                                                 
 dense (Dense)               (None, 128)               16512     
                                                                 
 dense_1 (Dense)             (None, 64)                8256      
                                                                 
 dense_2 (Dense)             (None, 64)                4160      
                                                                 
 dense_3 (Dense)             (None, 128)               8320      
                                                                 
 reshape (Reshape)           (None, 4, 4, 8)           0         
                                                                 
 conv2d_4 (Conv2D)           (None, 4, 4, 8)           584       
                                                                 
 up_sampling2d (UpSampling2D  (None, 8, 8, 8)          0         
 )                                                               
                                                                 
 conv2d_5 (Conv2D)           (None, 8, 8, 8)           584       
                                                                 
 up_sampling2d_1 (UpSampling  (None, 16, 16, 8)        0         
 2D)                                                             
                                                                 
 conv2d_6 (Conv2D)           (None, 16, 16, 8)         584       
                                                                 
 up_sampling2d_2 (UpSampling  (None, 32, 32, 8)        0         
 2D)                                                             
                                                                 
 conv2d_7 (Conv2D)           (None, 32, 32, 16)        1168      
                                                                 
 up_sampling2d_3 (UpSampling  (None, 64, 64, 16)       0         
 2D)                                                             
                                                                 
 conv2d_8 (Conv2D)           (None, 64, 64, 1)         145       
                                                                 
=================================================================
Total params: 42,801
Trainable params: 42,801
Non-trainable params: 0
_________________________________________________________________
None
Epoch 1/200
2022-04-15 17:02:52.527039: I tensorflow/stream_executor/cuda/cuda_dnn.cc:368] Loaded cuDNN version 8101
250/250 [==============================] - 350s 1s/step - loss: 0.4944 - val_loss: 0.4184
…
