…
(40000,)
(32000,)
2022-04-15 17:50:49.516270: I tensorflow/core/platform/cpu_feature_guard.cc:151] This TensorFlow binary is optimized with oneAPI Deep Neural Network Library (oneDNN) to use the following CPU instructions in performance-critical operations:  AVX2 FMA
To enable them in other operations, rebuild TensorFlow with the appropriate compiler flags.
Model: "sequential"
_________________________________________________________________
 Layer (type)                Output Shape              Param #   
=================================================================
 conv2d (Conv2D)             (None, 64, 64, 16)        160       
                                                                 
 max_pooling2d (MaxPooling2D  (None, 32, 32, 16)       0         
 )                                                               
                                                                 
 conv2d_1 (Conv2D)           (None, 32, 32, 8)         1160      
                                                                 
 max_pooling2d_1 (MaxPooling  (None, 16, 16, 8)        0         
 2D)                                                             
                                                                 
 conv2d_2 (Conv2D)           (None, 16, 16, 8)         584       
                                                                 
 max_pooling2d_2 (MaxPooling  (None, 8, 8, 8)          0         
 2D)                                                             
                                                                 
 conv2d_3 (Conv2D)           (None, 8, 8, 8)           584       
                                                                 
 up_sampling2d (UpSampling2D  (None, 16, 16, 8)        0         
 )                                                               
                                                                 
 conv2d_4 (Conv2D)           (None, 16, 16, 8)         584       
                                                                 
 up_sampling2d_1 (UpSampling  (None, 32, 32, 8)        0         
 2D)                                                             
                                                                 
 conv2d_5 (Conv2D)           (None, 32, 32, 16)        1168      
                                                                 
 up_sampling2d_2 (UpSampling  (None, 64, 64, 16)       0         
 2D)                                                             
                                                                 
 conv2d_6 (Conv2D)           (None, 64, 64, 1)         145       
                                                                 
=================================================================
Total params: 4,385
Trainable params: 4,385
Non-trainable params: 0
_________________________________________________________________
None
Epoch 1/200
1000/1000 [==============================] - 134s 130ms/step - loss: 0.3025 - val_loss: 0.2716
Epoch 2/200
1000/1000 [==============================] - 178s 175ms/step - loss: 0.2657 - val_loss: 0.2606
…
