…
2022-04-15 23:09:59.950306: I tensorflow/core/common_runtime/gpu/gpu_device.cc:1525] Created device /job:localhost/replica:0/task:0/device:GPU:2 with 10417 MB memory:  -> device: 2, name: GeForce GTX 1080 Ti, pci bus id: 0000:84:00.0, compute capability: 6.1
2022-04-15 23:09:59.951330: I tensorflow/core/common_runtime/gpu/gpu_device.cc:1525] Created device /job:localhost/replica:0/task:0/device:GPU:3 with 10417 MB memory:  -> device: 3, name: GeForce GTX 1080 Ti, pci bus id: 0000:8a:00.0, compute capability: 6.1
Model: "sequential"
_________________________________________________________________
 Layer (type)                Output Shape              Param #   
=================================================================
 conv2d (Conv2D)             (None, 64, 64, 8)         80        
                                                                 
 max_pooling2d (MaxPooling2D  (None, 32, 32, 8)        0         
 )                                                               
                                                                 
 conv2d_1 (Conv2D)           (None, 32, 32, 16)        1168      
                                                                 
 max_pooling2d_1 (MaxPooling  (None, 16, 16, 16)       0         
 2D)                                                             
                                                                 
 conv2d_2 (Conv2D)           (None, 16, 16, 32)        4640      
                                                                 
 max_pooling2d_2 (MaxPooling  (None, 8, 8, 32)         0         
 2D)                                                             
                                                                 
 conv2d_3 (Conv2D)           (None, 8, 8, 64)          18496     
                                                                 
 max_pooling2d_3 (MaxPooling  (None, 4, 4, 64)         0         
 2D)                                                             
                                                                 
 flatten (Flatten)           (None, 1024)              0         
                                                                 
 dense (Dense)               (None, 1024)              1049600   
                                                                 
 dense_1 (Dense)             (None, 1024)              1049600   
                                                                 
 reshape (Reshape)           (None, 4, 4, 64)          0         
                                                                 
 conv2d_4 (Conv2D)           (None, 4, 4, 64)          36928     
                                                                 
 up_sampling2d (UpSampling2D  (None, 8, 8, 64)         0         
 )                                                               
                                                                 
 conv2d_5 (Conv2D)           (None, 8, 8, 32)          18464     
                                                                 
 up_sampling2d_1 (UpSampling  (None, 16, 16, 32)       0         
 2D)                                                             
                                                                 
 conv2d_6 (Conv2D)           (None, 16, 16, 16)        4624      
                                                                 
 up_sampling2d_2 (UpSampling  (None, 32, 32, 16)       0         
 2D)                                                             
                                                                 
 conv2d_7 (Conv2D)           (None, 32, 32, 8)         1160      
                                                                 
 up_sampling2d_3 (UpSampling  (None, 64, 64, 8)        0         
 2D)                                                             
                                                                 
 conv2d_8 (Conv2D)           (None, 64, 64, 1)         73        
                                                                 
=================================================================
Total params: 2,184,833
Trainable params: 2,184,833
Non-trainable params: 0
_________________________________________________________________
None
Epoch 1/300
2022-04-15 23:10:02.290625: I tensorflow/stream_executor/cuda/cuda_dnn.cc:368] Loaded cuDNN version 8101
…
