…
2022-04-15 17:12:59.917984: I tensorflow/core/common_runtime/gpu/gpu_device.cc:1525] Created device /job:localhost/replica:0/task:0/device:GPU:2 with 10417 MB memory:  -> device: 2, name: NVIDIA GeForce GTX 1080 Ti, pci bus id: 0000:84:00.0, compute capability: 6.1
2022-04-15 17:12:59.919305: I tensorflow/core/common_runtime/gpu/gpu_device.cc:1525] Created device /job:localhost/replica:0/task:0/device:GPU:3 with 10417 MB memory:  -> device: 3, name: NVIDIA GeForce GTX 1080 Ti, pci bus id: 0000:8a:00.0, compute capability: 6.1
Model: "sequential"
_________________________________________________________________
 Layer (type)                Output Shape              Param #   
=================================================================
 conv2d (Conv2D)             (None, 256, 256, 32)      320       
                                                                 
 max_pooling2d (MaxPooling2D  (None, 128, 128, 32)     0         
 )                                                               
                                                                 
 conv2d_1 (Conv2D)           (None, 128, 128, 32)      9248      
                                                                 
 max_pooling2d_1 (MaxPooling  (None, 64, 64, 32)       0         
 2D)                                                             
                                                                 
 conv2d_2 (Conv2D)           (None, 64, 64, 64)        18496     
                                                                 
 max_pooling2d_2 (MaxPooling  (None, 32, 32, 64)       0         
 2D)                                                             
                                                                 
 conv2d_3 (Conv2D)           (None, 32, 32, 64)        36928     
                                                                 
 max_pooling2d_3 (MaxPooling  (None, 16, 16, 64)       0         
 2D)                                                             
                                                                 
 conv2d_4 (Conv2D)           (None, 16, 16, 64)        36928     
                                                                 
 max_pooling2d_4 (MaxPooling  (None, 8, 8, 64)         0         
 2D)                                                             
                                                                 
 flatten (Flatten)           (None, 4096)              0         
                                                                 
 dense (Dense)               (None, 4096)              16781312  
                                                                 
 dense_1 (Dense)             (None, 4096)              16781312  
                                                                 
 reshape (Reshape)           (None, 8, 8, 64)          0         
                                                                 
 conv2d_5 (Conv2D)           (None, 8, 8, 64)          36928     
                                                                 
 up_sampling2d (UpSampling2D  (None, 16, 16, 64)       0         
 )                                                               
                                                                 
 conv2d_6 (Conv2D)           (None, 16, 16, 64)        36928     
                                                                 
 up_sampling2d_1 (UpSampling  (None, 32, 32, 64)       0         
 2D)                                                             
                                                                 
 conv2d_7 (Conv2D)           (None, 32, 32, 64)        36928     
                                                                 
 up_sampling2d_2 (UpSampling  (None, 64, 64, 64)       0         
 2D)                                                             
                                                                 
 conv2d_8 (Conv2D)           (None, 64, 64, 32)        18464     
                                                                 
 up_sampling2d_3 (UpSampling  (None, 128, 128, 32)     0         
 2D)                                                             
                                                                 
 conv2d_9 (Conv2D)           (None, 128, 128, 32)      9248      
                                                                 
 up_sampling2d_4 (UpSampling  (None, 256, 256, 32)     0         
 2D)                                                             
                                                                 
 conv2d_10 (Conv2D)          (None, 256, 256, 1)       289       
                                                                 
=================================================================
Total params: 33,803,329
Trainable params: 33,803,329
Non-trainable params: 0
_________________________________________________________________
None
Epoch 1/100
2022-04-15 17:13:12.118580: I tensorflow/stream_executor/cuda/cuda_dnn.cc:368] Loaded cuDNN version 8101
…
