…
2022-04-30 17:00:02.842503: I tensorflow/core/common_runtime/gpu/gpu_device.cc:1525] Created device /job:localhost/replica:0/task:0/device:GPU:2 with 33067 MB memory:  -> device: 2, name: NVIDIA A100-PCIE-40GB, pci bus id: 0000:81:00.0, compute capability: 8.0
2022-04-30 17:00:02.844123: I tensorflow/core/common_runtime/gpu/gpu_device.cc:1525] Created device /job:localhost/replica:0/task:0/device:GPU:3 with 33289 MB memory:  -> device: 3, name: NVIDIA A100-PCIE-40GB, pci bus id: 0000:c1:00.0, compute capability: 8.0
Model: "sequential"
_________________________________________________________________
 Layer (type)                Output Shape              Param #   
=================================================================
 conv2d (Conv2D)             (None, 16, 256, 96)       11712     
                                                                 
 batch_normalization (BatchN  (None, 16, 256, 96)      384       
 ormalization)                                                   
                                                                 
 max_pooling2d (MaxPooling2D  (None, 8, 128, 96)       0         
 )                                                               
                                                                 
 conv2d_1 (Conv2D)           (None, 8, 128, 256)       614656    
                                                                 
 batch_normalization_1 (Batc  (None, 8, 128, 256)      1024      
 hNormalization)                                                 
                                                                 
 max_pooling2d_1 (MaxPooling  (None, 4, 64, 256)       0         
 2D)                                                             
                                                                 
 conv2d_2 (Conv2D)           (None, 4, 64, 384)        885120    
                                                                 
 batch_normalization_2 (Batc  (None, 4, 64, 384)       1536      
 hNormalization)                                                 
                                                                 
 conv2d_3 (Conv2D)           (None, 4, 64, 384)        1327488   
                                                                 
 batch_normalization_3 (Batc  (None, 4, 64, 384)       1536      
 hNormalization)                                                 
                                                                 
 conv2d_4 (Conv2D)           (None, 4, 64, 256)        884992    
                                                                 
 batch_normalization_4 (Batc  (None, 4, 64, 256)       1024      
 hNormalization)                                                 
                                                                 
 max_pooling2d_2 (MaxPooling  (None, 2, 32, 256)       0         
 2D)                                                             
                                                                 
 flatten (Flatten)           (None, 16384)             0         
                                                                 
 dense (Dense)               (None, 16384)             268451840 
                                                                 
 dense_1 (Dense)             (None, 16384)             268451840 
                                                                 
 reshape (Reshape)           (None, 2, 32, 256)        0         
                                                                 
 conv2d_5 (Conv2D)           (None, 2, 32, 256)        590080    
                                                                 
 batch_normalization_5 (Batc  (None, 2, 32, 256)       1024      
 hNormalization)                                                 
                                                                 
 up_sampling2d (UpSampling2D  (None, 4, 64, 256)       0         
 )                                                               
                                                                 
 conv2d_6 (Conv2D)           (None, 4, 64, 384)        885120    
                                                                 
 batch_normalization_6 (Batc  (None, 4, 64, 384)       1536      
 hNormalization)                                                 
                                                                 
 up_sampling2d_1 (UpSampling  (None, 8, 128, 384)      0         
 2D)                                                             
                                                                 
 conv2d_7 (Conv2D)           (None, 8, 128, 384)       1327488   
                                                                 
 batch_normalization_7 (Batc  (None, 8, 128, 384)      1536      
 hNormalization)                                                 
                                                                 
 up_sampling2d_2 (UpSampling  (None, 16, 256, 384)     0         
 2D)                                                             
                                                                 
 conv2d_8 (Conv2D)           (None, 16, 256, 256)      2457856   
                                                                 
 batch_normalization_8 (Batc  (None, 16, 256, 256)     1024      
 hNormalization)                                                 
                                                                 
 up_sampling2d_3 (UpSampling  (None, 32, 512, 256)     0         
 2D)                                                             
                                                                 
 conv2d_9 (Conv2D)           (None, 32, 512, 96)       2973792   
                                                                 
 batch_normalization_9 (Batc  (None, 32, 512, 96)      384       
 hNormalization)                                                 
                                                                 
 up_sampling2d_4 (UpSampling  (None, 64, 1024, 96)     0         
 2D)                                                             
                                                                 
 conv2d_10 (Conv2D)          (None, 64, 1024, 1)       865       
                                                                 
=================================================================
Total params: 548,873,857
Trainable params: 548,868,353
Non-trainable params: 5,504
_________________________________________________________________
None
Epoch 1/200
2022-04-30 17:00:10.005085: I tensorflow/stream_executor/cuda/cuda_dnn.cc:368] Loaded cuDNN version 8101
…
