…
2022-04-08 21:48:39.945968: I tensorflow/core/common_runtime/gpu/gpu_device.cc:1525] Created device /job:localhost/replica:0/task:0/device:GPU:2 with 25625 MB memory:  -> device: 2, name: NVIDIA A100-PCIE-40GB, pci bus id: 0000:81:00.0, compute capability: 8.0
2022-04-08 21:48:39.947536: I tensorflow/core/common_runtime/gpu/gpu_device.cc:1525] Created device /job:localhost/replica:0/task:0/device:GPU:3 with 23171 MB memory:  -> device: 3, name: NVIDIA A100-PCIE-40GB, pci bus id: 0000:c1:00.0, compute capability: 8.0
Model: "sequential"
_________________________________________________________________
 Layer (type)                Output Shape              Param #   
=================================================================
 conv2d (Conv2D)             (None, 256, 256, 32)      320       
                                                                 
 max_pooling2d (MaxPooling2D  (None, 128, 128, 32)     0         
 )                                                               
                                                                 
 conv2d_1 (Conv2D)           (None, 128, 128, 32)      9248      
                                                                 
 max_pooling2d_1 (MaxPooling  (None, 64, 64, 32)       0         
 2D)                                                             
                                                                 
 conv2d_2 (Conv2D)           (None, 64, 64, 64)        18496     
                                                                 
 max_pooling2d_2 (MaxPooling  (None, 32, 32, 64)       0         
 2D)                                                             
                                                                 
 conv2d_3 (Conv2D)           (None, 32, 32, 64)        36928     
                                                                 
 up_sampling3d (UpSampling3D  (None, 64, 64, 128)      0         
 )                                                               
                                                                 
 conv2d_4 (Conv2D)           (None, 64, 64, 32)        36896     
                                                                 
 up_sampling3d_1 (UpSampling  (None, 128, 128, 64)     0         
 3D)                                                             
                                                                 
 conv2d_5 (Conv2D)           (None, 128, 128, 32)      18464     
                                                                 
 up_sampling2d (UpSampling2D  (None, 256, 256, 32)     0         
 )                                                               
                                                                 
 conv2d_6 (Conv2D)           (None, 256, 256, 1)       289       
                                                                 
=================================================================
Total params: 120,641
Trainable params: 120,641
Non-trainable params: 0
_________________________________________________________________
None
Epoch 1/20
2022-04-08 21:48:45.665160: I tensorflow/stream_executor/cuda/cuda_dnn.cc:368] Loaded cuDNN version 8101
320/320 [==============================] - 598s 2s/step - loss: 0.2438 - val_loss: 0.2095
…
