…
2022-04-13 22:09:21.427089: I tensorflow/core/common_runtime/gpu/gpu_device.cc:1525] Created device /job:localhost/replica:0/task:0/device:GPU:2 with 10417 MB memory:  -> device: 2, name: NVIDIA GeForce GTX 1080 Ti, pci bus id: 0000:84:00.0, compute capability: 6.1
2022-04-13 22:09:21.428781: I tensorflow/core/common_runtime/gpu/gpu_device.cc:1525] Created device /job:localhost/replica:0/task:0/device:GPU:3 with 10417 MB memory:  -> device: 3, name: NVIDIA GeForce GTX 1080 Ti, pci bus id: 0000:8a:00.0, compute capability: 6.1
Model: "sequential"
_________________________________________________________________
 Layer (type)                Output Shape              Param #   
=================================================================
 conv2d (Conv2D)             (None, 256, 256, 32)      320       
                                                                 
 max_pooling2d (MaxPooling2D  (None, 128, 128, 32)     0         
 )                                                               
                                                                 
 conv2d_1 (Conv2D)           (None, 128, 128, 32)      9248      
                                                                 
 max_pooling2d_1 (MaxPooling  (None, 64, 64, 32)       0         
 2D)                                                             
                                                                 
 conv2d_2 (Conv2D)           (None, 64, 64, 64)        18496     
                                                                 
 max_pooling2d_2 (MaxPooling  (None, 32, 32, 64)       0         
 2D)                                                             
                                                                 
 conv2d_3 (Conv2D)           (None, 32, 32, 64)        36928     
                                                                 
 max_pooling2d_3 (MaxPooling  (None, 16, 16, 64)       0         
 2D)                                                             
                                                                 
 conv2d_4 (Conv2D)           (None, 16, 16, 64)        36928     
                                                                 
 max_pooling2d_4 (MaxPooling  (None, 8, 8, 64)         0         
 2D)                                                             
                                                                 
 flatten (Flatten)           (None, 4096)              0         
                                                                 
 dense (Dense)               (None, 4096)              16781312  
                                                                 
 dense_1 (Dense)             (None, 4096)              16781312  
                                                                 
 reshape (Reshape)           (None, 8, 8, 64)          0         
                                                                 
 conv2d_5 (Conv2D)           (None, 8, 8, 64)          36928     
                                                                 
 up_sampling2d (UpSampling2D  (None, 16, 16, 64)       0         
 )                                                               
                                                                 
 conv2d_6 (Conv2D)           (None, 16, 16, 64)        36928     
                                                                 
 up_sampling2d_1 (UpSampling  (None, 32, 32, 64)       0         
 2D)                                                             
                                                                 
 conv2d_7 (Conv2D)           (None, 32, 32, 64)        36928     
                                                                 
 up_sampling2d_2 (UpSampling  (None, 64, 64, 64)       0         
 2D)                                                             
                                                                 
 conv2d_8 (Conv2D)           (None, 64, 64, 32)        18464     
                                                                 
 up_sampling2d_3 (UpSampling  (None, 128, 128, 32)     0         
 2D)                                                             
                                                                 
 conv2d_9 (Conv2D)           (None, 128, 128, 32)      9248      
                                                                 
 up_sampling2d_4 (UpSampling  (None, 256, 256, 32)     0         
 2D)                                                             
                                                                 
 conv2d_10 (Conv2D)          (None, 256, 256, 1)       289       
                                                                 
=================================================================
Total params: 33,803,329
Trainable params: 33,803,329
Non-trainable params: 0
_________________________________________________________________
None
Epoch 1/100
2022-04-13 22:09:31.819133: I tensorflow/stream_executor/cuda/cuda_dnn.cc:368] Loaded cuDNN version 8101
…
2022-04-13 21:50:24.222449: I tensorflow/stream_executor/cuda/cuda_diagnostics.cc:310] kernel version seems to match DSO: 418.87.0
2022-04-13 21:50:24.223119: I tensorflow/core/platform/cpu_feature_guard.cc:151] This TensorFlow binary is optimized with oneAPI Deep Neural Network L
To enable them in other operations, rebuild TensorFlow with the appropriate compiler flags.
Model: "sequential"
_________________________________________________________________
 Layer (type)                Output Shape              Param #   
=================================================================
 conv2d (Conv2D)             (None, 256, 256, 32)      320       
                                                                 
 max_pooling2d (MaxPooling2D  (None, 128, 128, 32)     0         
 )                                                               
                                                                 
 conv2d_1 (Conv2D)           (None, 128, 128, 32)      9248      
                                                                 
 max_pooling2d_1 (MaxPooling  (None, 64, 64, 32)       0         
 2D)                                                             
                                                                 
 conv2d_2 (Conv2D)           (None, 64, 64, 64)        18496     
                                                                 
 max_pooling2d_2 (MaxPooling  (None, 32, 32, 64)       0         
 2D)                                                             
                                                                 
 conv2d_3 (Conv2D)           (None, 32, 32, 64)        36928     
                                                                 
 max_pooling2d_3 (MaxPooling  (None, 16, 16, 64)       0         
 2D)                                                             
                                                                 
 flatten (Flatten)           (None, 16384)             0         
                                                                 
 dense (Dense)               (None, 16384)             268451840 
                                                                 
 dense_1 (Dense)             (None, 16384)             268451840 
                                                                 
 reshape (Reshape)           (None, 16, 16, 64)        0         
                                                                 
 conv2d_4 (Conv2D)           (None, 16, 16, 64)        36928     
                                                                 
 up_sampling2d (UpSampling2D  (None, 32, 32, 64)       0         
 )                                                               
                                                                 
 conv2d_5 (Conv2D)           (None, 32, 32, 64)        36928     
                                                                 
 up_sampling2d_1 (UpSampling  (None, 64, 64, 64)       0         
 2D)                                                             
                                                                 
 conv2d_6 (Conv2D)           (None, 64, 64, 32)        18464     
                                                                 
 up_sampling2d_2 (UpSampling  (None, 128, 128, 32)     0         
 2D)                                                             
                                                                 
 conv2d_7 (Conv2D)           (None, 128, 128, 32)      9248      
                                                                 
 up_sampling2d_3 (UpSampling  (None, 256, 256, 32)     0         
 2D)                                                             
                                                                 
 conv2d_8 (Conv2D)           (None, 256, 256, 1)       289       
                                                                 
=================================================================
Total params: 537,070,529
Trainable params: 537,070,529
Non-trainable params: 0
_________________________________________________________________
None
Epoch 1/25
125/125 [==============================] - 10317s 82s/step - loss: 0.3943 - val_loss: 0.3707
Epoch 2/25
…
2022-04-13 14:56:10.428805: I tensorflow/stream_executor/cuda/cuda_diagnostics.cc:310] kernel version seems to match DSO: 418.87.0
2022-04-13 14:56:10.429697: I tensorflow/core/platform/cpu_feature_guard.cc:151] This TensorFlow binary is optimized with oneAPI Deep Neural Network Library (oneDNN) to use the following CPU instructions in performance-critical operations:  AVX2 FMA
To enable them in other operations, rebuild TensorFlow with the appropriate compiler flags.
Model: "sequential"
_________________________________________________________________
 Layer (type)                Output Shape              Param #   
=================================================================
 conv2d (Conv2D)             (None, 64, 1024, 32)      320       
                                                                 
 batch_normalization (BatchN  (None, 64, 1024, 32)     128       
 ormalization)                                                   
                                                                 
 max_pooling2d (MaxPooling2D  (None, 32, 512, 32)      0         
 )                                                               
                                                                 
 conv2d_1 (Conv2D)           (None, 32, 512, 64)       18496     
                                                                 
 batch_normalization_1 (Batc  (None, 32, 512, 64)      256       
 hNormalization)                                                 
                                                                 
 max_pooling2d_1 (MaxPooling  (None, 16, 256, 64)      0         
 2D)                                                             
                                                                 
 conv2d_2 (Conv2D)           (None, 16, 256, 64)       36928     
                                                                 
 max_pooling2d_2 (MaxPooling  (None, 8, 128, 64)       0         
 2D)                                                             
                                                                 
 conv2d_3 (Conv2D)           (None, 8, 128, 64)        36928     
                                                                 
 max_pooling2d_3 (MaxPooling  (None, 4, 64, 64)        0         
 2D)                                                             
                                                                 
 flatten (Flatten)           (None, 16384)             0         
                                                                 
 dense (Dense)               (None, 16384)             268451840 
                                                                 
 dense_1 (Dense)             (None, 16384)             268451840 
                                                                 
 reshape (Reshape)           (None, 4, 64, 64)         0         
                                                                 
 conv2d_4 (Conv2D)           (None, 4, 64, 64)         36928     
                                                                 
 up_sampling2d (UpSampling2D  (None, 8, 128, 64)       0         
 )                                                               
                                                                 
 conv2d_5 (Conv2D)           (None, 8, 128, 64)        36928     
                                                                 
 up_sampling2d_1 (UpSampling  (None, 16, 256, 64)      0         
 2D)                                                             
                                                                 
 conv2d_6 (Conv2D)           (None, 16, 256, 64)       36928     
                                                                 
 batch_normalization_2 (Batc  (None, 16, 256, 64)      256       
 hNormalization)                                                 
                                                                 
 up_sampling2d_2 (UpSampling  (None, 32, 512, 64)      0         
 2D)                                                             
                                                                 
 conv2d_7 (Conv2D)           (None, 32, 512, 32)       18464     
                                                                 
 batch_normalization_3 (Batc  (None, 32, 512, 32)      128       
 hNormalization)                                                 
                                                                 
 up_sampling2d_3 (UpSampling  (None, 64, 1024, 32)     0         
 2D)                                                             
                                                                 
 conv2d_8 (Conv2D)           (None, 64, 1024, 1)       289       
                                                                 
=================================================================
Total params: 537,126,657
Trainable params: 537,126,273
Non-trainable params: 384
_________________________________________________________________
None
Epoch 1/50
140/140 [==============================] - 14630s 104s/step - loss: 0.5987 - val_loss: 0.5908
Epoch 2/50
…
2022-04-13 14:13:41.236228: I tensorflow/stream_executor/cuda/cuda_diagnostics.cc:310] kernel version seems to match DSO: 470.57.2
2022-04-13 14:13:41.236945: I tensorflow/core/platform/cpu_feature_guard.cc:151] This TensorFlow binary is optimized with oneAPI Deep Neural Network Library (oneDNN) to use the following CPU instructions in performance-critical operations:  AVX2 FMA
To enable them in other operations, rebuild TensorFlow with the appropriate compiler flags.
Model: "sequential"
_________________________________________________________________
 Layer (type)                Output Shape              Param #   
=================================================================
 conv2d (Conv2D)             (None, 64, 1024, 32)      320       
                                                                 
 max_pooling2d (MaxPooling2D  (None, 32, 512, 32)      0         
 )                                                               
                                                                 
 conv2d_1 (Conv2D)           (None, 32, 512, 64)       18496     
                                                                 
 max_pooling2d_1 (MaxPooling  (None, 16, 256, 64)      0         
 2D)                                                             
                                                                 
 conv2d_2 (Conv2D)           (None, 16, 256, 64)       36928     
                                                                 
 max_pooling2d_2 (MaxPooling  (None, 8, 128, 64)       0         
 2D)                                                             
                                                                 
 conv2d_3 (Conv2D)           (None, 8, 128, 64)        36928     
                                                                 
 max_pooling2d_3 (MaxPooling  (None, 4, 64, 64)        0         
 2D)                                                             
                                                                 
 flatten (Flatten)           (None, 16384)             0         
                                                                 
 dense (Dense)               (None, 16384)             268451840 
                                                                 
 dense_1 (Dense)             (None, 16384)             268451840 
                                                                 
 reshape (Reshape)           (None, 4, 64, 64)         0         
                                                                 
 conv2d_4 (Conv2D)           (None, 4, 64, 64)         36928     
                                                                 
 up_sampling2d (UpSampling2D  (None, 8, 128, 64)       0         
 )                                                               
                                                                 
 conv2d_5 (Conv2D)           (None, 8, 128, 64)        36928     
                                                                 
 up_sampling2d_1 (UpSampling  (None, 16, 256, 64)      0         
 2D)                                                             
                                                                 
 conv2d_6 (Conv2D)           (None, 16, 256, 64)       36928     
                                                                 
 up_sampling2d_2 (UpSampling  (None, 32, 512, 64)      0         
 2D)                                                             
                                                                 
 conv2d_7 (Conv2D)           (None, 32, 512, 32)       18464     
                                                                 
 up_sampling2d_3 (UpSampling  (None, 64, 1024, 32)     0         
 2D)                                                             
                                                                 
 conv2d_8 (Conv2D)           (None, 64, 1024, 1)       289       
                                                                 
=================================================================
Total params: 537,125,889
Trainable params: 537,125,889
Non-trainable params: 0
_________________________________________________________________
None
Epoch 1/100
140/140 [==============================] - 13068s 93s/step - loss: 0.5903 - val_loss: 0.5824
Epoch 2/100
…
