…
2022-04-29 21:59:42.656921: I tensorflow/core/common_runtime/gpu/gpu_device.cc:1525] Created device /job:localhost/replica:0/task:0/device:GPU:2 with 10417 MB memory:  -> device: 2, name: GeForce GTX 1080 Ti, pci bus id: 0000:84:00.0, compute capability: 6.1
2022-04-29 21:59:42.658930: I tensorflow/core/common_runtime/gpu/gpu_device.cc:1525] Created device /job:localhost/replica:0/task:0/device:GPU:3 with 10417 MB memory:  -> device: 3, name: GeForce GTX 1080 Ti, pci bus id: 0000:8a:00.0, compute capability: 6.1
Model: "sequential"
_________________________________________________________________
 Layer (type)                Output Shape              Param #   
=================================================================
 conv2d (Conv2D)             (None, 64, 1024, 32)      320       
                                                                 
 conv2d_1 (Conv2D)           (None, 64, 1024, 32)      9248      
                                                                 
 max_pooling2d (MaxPooling2D  (None, 32, 512, 32)      0         
 )                                                               
                                                                 
 conv2d_2 (Conv2D)           (None, 32, 512, 64)       18496     
                                                                 
 conv2d_3 (Conv2D)           (None, 32, 512, 64)       36928     
                                                                 
 max_pooling2d_1 (MaxPooling  (None, 16, 256, 64)      0         
 2D)                                                             
                                                                 
 conv2d_4 (Conv2D)           (None, 16, 256, 128)      73856     
                                                                 
 conv2d_5 (Conv2D)           (None, 16, 256, 128)      147584    
                                                                 
 conv2d_6 (Conv2D)           (None, 16, 256, 128)      147584    
                                                                 
 max_pooling2d_2 (MaxPooling  (None, 8, 128, 128)      0         
 2D)                                                             
                                                                 
 conv2d_7 (Conv2D)           (None, 8, 128, 128)       147584    
                                                                 
 conv2d_8 (Conv2D)           (None, 8, 128, 128)       147584    
                                                                 
 conv2d_9 (Conv2D)           (None, 8, 128, 128)       147584    
                                                                 
 max_pooling2d_3 (MaxPooling  (None, 4, 64, 128)       0         
 2D)                                                             
                                                                 
 conv2d_10 (Conv2D)          (None, 4, 64, 128)        147584    
                                                                 
 conv2d_11 (Conv2D)          (None, 4, 64, 128)        147584    
                                                                 
 conv2d_12 (Conv2D)          (None, 4, 64, 128)        147584    
                                                                 
 max_pooling2d_4 (MaxPooling  (None, 2, 32, 128)       0         
 2D)                                                             
                                                                 
 flatten (Flatten)           (None, 8192)              0         
                                                                 
 dense (Dense)               (None, 8192)              67117056  
                                                                 
 dense_1 (Dense)             (None, 8192)              67117056  
                                                                 
 reshape (Reshape)           (None, 2, 32, 128)        0         
                                                                 
 conv2d_13 (Conv2D)          (None, 2, 32, 128)        147584    
                                                                 
 conv2d_14 (Conv2D)          (None, 2, 32, 128)        147584    
                                                                 
 conv2d_15 (Conv2D)          (None, 2, 32, 128)        147584    
                                                                 
 up_sampling2d (UpSampling2D  (None, 4, 64, 128)       0         
 )                                                               
                                                                 
 conv2d_16 (Conv2D)          (None, 4, 64, 128)        147584    
                                                                 
 conv2d_17 (Conv2D)          (None, 4, 64, 128)        147584    
                                                                 
 conv2d_18 (Conv2D)          (None, 4, 64, 128)        147584    
                                                                 
 up_sampling2d_1 (UpSampling  (None, 8, 128, 128)      0         
 2D)                                                             
                                                                 
 conv2d_19 (Conv2D)          (None, 8, 128, 128)       147584    
                                                                 
 conv2d_20 (Conv2D)          (None, 8, 128, 128)       147584    
                                                                 
 conv2d_21 (Conv2D)          (None, 8, 128, 128)       147584    
                                                                 
 up_sampling2d_2 (UpSampling  (None, 16, 256, 128)     0         
 2D)                                                             
                                                                 
 conv2d_22 (Conv2D)          (None, 16, 256, 64)       73792     
                                                                 
 conv2d_23 (Conv2D)          (None, 16, 256, 64)       36928     
                                                                 
 up_sampling2d_3 (UpSampling  (None, 32, 512, 64)      0         
 2D)                                                             
                                                                 
 conv2d_24 (Conv2D)          (None, 32, 512, 32)       18464     
                                                                 
 conv2d_25 (Conv2D)          (None, 32, 512, 32)       9248      
                                                                 
 up_sampling2d_4 (UpSampling  (None, 64, 1024, 32)     0         
 2D)                                                             
                                                                 
 conv2d_26 (Conv2D)          (None, 64, 1024, 1)       289       
                                                                 
=================================================================
Total params: 137,020,609
Trainable params: 137,020,609
Non-trainable params: 0
_________________________________________________________________
None
Epoch 1/100
2022-04-29 21:59:47.044772: I tensorflow/stream_executor/cuda/cuda_dnn.cc:368] Loaded cuDNN version 8101
…
