…
2022-05-01 22:55:20.373228: I tensorflow/core/common_runtime/gpu/gpu_device.cc:1525] Created device /job:localhost/replica:0/task:0/device:GPU:2 with 10417 MB memory:  -> device: 2, name: GeForce GTX 1080 Ti, pci bus id: 0000:84:00.0, compute capability: 6.1
2022-05-01 22:55:20.374236: I tensorflow/core/common_runtime/gpu/gpu_device.cc:1525] Created device /job:localhost/replica:0/task:0/device:GPU:3 with 10417 MB memory:  -> device: 3, name: GeForce GTX 1080 Ti, pci bus id: 0000:8a:00.0, compute capability: 6.1
Model: "sequential"
_________________________________________________________________
 Layer (type)                Output Shape              Param #   
=================================================================
 conv2d (Conv2D)             (None, 16, 256, 8)        976       
                                                                 
 batch_normalization (BatchN  (None, 16, 256, 8)       32        
 ormalization)                                                   
                                                                 
 max_pooling2d (MaxPooling2D  (None, 8, 128, 8)        0         
 )                                                               
                                                                 
 conv2d_1 (Conv2D)           (None, 8, 128, 8)         1608      
                                                                 
 batch_normalization_1 (Batc  (None, 8, 128, 8)        32        
 hNormalization)                                                 
                                                                 
 max_pooling2d_1 (MaxPooling  (None, 4, 64, 8)         0         
 2D)                                                             
                                                                 
 conv2d_2 (Conv2D)           (None, 4, 64, 8)          584       
                                                                 
 batch_normalization_2 (Batc  (None, 4, 64, 8)         32        
 hNormalization)                                                 
                                                                 
 conv2d_3 (Conv2D)           (None, 4, 64, 8)          584       
                                                                 
 batch_normalization_3 (Batc  (None, 4, 64, 8)         32        
 hNormalization)                                                 
                                                                 
 max_pooling2d_2 (MaxPooling  (None, 4, 64, 8)         0         
 2D)                                                             
                                                                 
 flatten (Flatten)           (None, 2048)              0         
                                                                 
 dense (Dense)               (None, 2048)              4196352   
                                                                 
 dropout (Dropout)           (None, 2048)              0         
                                                                 
 dense_1 (Dense)             (None, 2048)              4196352   
                                                                 
 reshape (Reshape)           (None, 4, 64, 8)          0         
                                                                 
 conv2d_4 (Conv2D)           (None, 4, 64, 8)          584       
                                                                 
 batch_normalization_4 (Batc  (None, 4, 64, 8)         32        
 hNormalization)                                                 
                                                                 
 up_sampling2d (UpSampling2D  (None, 8, 128, 8)        0         
 )                                                               
                                                                 
 conv2d_5 (Conv2D)           (None, 8, 128, 8)         584       
                                                                 
 batch_normalization_5 (Batc  (None, 8, 128, 8)        32        
 hNormalization)                                                 
                                                                 
 up_sampling2d_1 (UpSampling  (None, 16, 256, 8)       0         
 2D)                                                             
                                                                 
 conv2d_6 (Conv2D)           (None, 16, 256, 8)        1608      
                                                                 
 batch_normalization_6 (Batc  (None, 16, 256, 8)       32        
 hNormalization)                                                 
                                                                 
 up_sampling2d_2 (UpSampling  (None, 32, 512, 8)       0         
 2D)                                                             
                                                                 
 conv2d_7 (Conv2D)           (None, 32, 512, 8)        7752      
                                                                 
 batch_normalization_7 (Batc  (None, 32, 512, 8)       32        
 hNormalization)                                                 
                                                                 
 up_sampling2d_3 (UpSampling  (None, 64, 1024, 8)      0         
 2D)                                                             
                                                                 
 conv2d_8 (Conv2D)           (None, 64, 1024, 1)       73        
                                                                 
=================================================================
Total params: 8,407,313
Trainable params: 8,407,185
Non-trainable params: 128
_________________________________________________________________
None
Epoch 1/100
2022-05-01 22:55:23.412464: I tensorflow/stream_executor/cuda/cuda_dnn.cc:368] Loaded cuDNN version 8101
…
