…
2022-04-29 18:09:36.846038: I tensorflow/core/common_runtime/gpu/gpu_device.cc:1525] Created device /job:localhost/replica:0/task:0/device:GPU:2 with 6674 MB memory:  -> device: 2, name: Quadro RTX 4000, pci bus id: 0000:b1:00.0, compute capability: 7.5
2022-04-29 18:09:36.849450: I tensorflow/core/common_runtime/gpu/gpu_device.cc:1525] Created device /job:localhost/replica:0/task:0/device:GPU:3 with 6674 MB memory:  -> device: 3, name: Quadro RTX 4000, pci bus id: 0000:da:00.0, compute capability: 7.5
Model: "sequential"
_________________________________________________________________
 Layer (type)                Output Shape              Param #   
=================================================================
 conv2d (Conv2D)             (None, 64, 1024, 32)      320       
                                                                 
 conv2d_1 (Conv2D)           (None, 64, 1024, 32)      9248      
                                                                 
 max_pooling2d (MaxPooling2D  (None, 32, 512, 32)      0         
 )                                                               
                                                                 
 conv2d_2 (Conv2D)           (None, 32, 512, 64)       18496     
                                                                 
 conv2d_3 (Conv2D)           (None, 32, 512, 64)       36928     
                                                                 
 max_pooling2d_1 (MaxPooling  (None, 16, 256, 64)      0         
 2D)                                                             
                                                                 
 conv2d_4 (Conv2D)           (None, 16, 256, 256)      147712    
                                                                 
 conv2d_5 (Conv2D)           (None, 16, 256, 256)      590080    
                                                                 
 max_pooling2d_2 (MaxPooling  (None, 8, 128, 256)      0         
 2D)                                                             
                                                                 
 conv2d_6 (Conv2D)           (None, 8, 128, 256)       590080    
                                                                 
 conv2d_7 (Conv2D)           (None, 8, 128, 256)       590080    
                                                                 
 max_pooling2d_3 (MaxPooling  (None, 4, 64, 256)       0         
 2D)                                                             
                                                                 
 conv2d_8 (Conv2D)           (None, 4, 64, 256)        590080    
                                                                 
 conv2d_9 (Conv2D)           (None, 4, 64, 256)        590080    
                                                                 
 max_pooling2d_4 (MaxPooling  (None, 2, 32, 256)       0         
 2D)                                                             
                                                                 
 conv2d_10 (Conv2D)          (None, 2, 32, 256)        590080    
                                                                 
 conv2d_11 (Conv2D)          (None, 2, 32, 256)        590080    
                                                                 
 max_pooling2d_5 (MaxPooling  (None, 1, 16, 256)       0         
 2D)                                                             
                                                                 
 flatten (Flatten)           (None, 4096)              0         
                                                                 
 dense (Dense)               (None, 4096)              16781312  
                                                                 
 dense_1 (Dense)             (None, 4096)              16781312  
                                                                 
 reshape (Reshape)           (None, 1, 16, 256)        0         
                                                                 
 conv2d_12 (Conv2D)          (None, 1, 16, 256)        590080    
                                                                 
 conv2d_13 (Conv2D)          (None, 1, 16, 256)        590080    
                                                                 
 up_sampling2d (UpSampling2D  (None, 2, 32, 256)       0         
 )                                                               
                                                                 
 conv2d_14 (Conv2D)          (None, 2, 32, 256)        590080    
                                                                 
 conv2d_15 (Conv2D)          (None, 2, 32, 256)        590080    
                                                                 
 up_sampling2d_1 (UpSampling  (None, 4, 64, 256)       0         
 2D)                                                             
                                                                 
 conv2d_16 (Conv2D)          (None, 4, 64, 256)        590080    
                                                                 
 conv2d_17 (Conv2D)          (None, 4, 64, 256)        590080    
                                                                 
 up_sampling2d_2 (UpSampling  (None, 8, 128, 256)      0         
 2D)                                                             
                                                                 
 conv2d_18 (Conv2D)          (None, 8, 128, 256)       590080    
                                                                 
 conv2d_19 (Conv2D)          (None, 8, 128, 256)       590080    
                                                                 
 up_sampling2d_3 (UpSampling  (None, 16, 256, 256)     0         
 2D)                                                             
                                                                 
 conv2d_20 (Conv2D)          (None, 16, 256, 64)       147520    
                                                                 
 conv2d_21 (Conv2D)          (None, 16, 256, 64)       36928     
                                                                 
 up_sampling2d_4 (UpSampling  (None, 32, 512, 64)      0         
 2D)                                                             
                                                                 
 conv2d_22 (Conv2D)          (None, 32, 512, 32)       18464     
                                                                 
 conv2d_23 (Conv2D)          (None, 32, 512, 32)       9248      
                                                                 
 up_sampling2d_5 (UpSampling  (None, 64, 1024, 32)     0         
 2D)                                                             
                                                                 
 conv2d_24 (Conv2D)          (None, 64, 1024, 1)       289       
                                                                 
=================================================================
Total params: 42,838,977
Trainable params: 42,838,977
Non-trainable params: 0
_________________________________________________________________
None
Epoch 1/200
2022-04-29 18:09:43.992147: I tensorflow/stream_executor/cuda/cuda_dnn.cc:368] Loaded cuDNN version 8101
…
