…
__________________________________________________________________________________________________
 Layer (type)                   Output Shape         Param #     Connected to                     
==================================================================================================
 input_1 (InputLayer)           [(None, 64, 1024, 1  0           []                               
                                )]                                                                
                                                                                                  
 conv2d (Conv2D)                (None, 32, 512, 32)  320         ['input_1[0][0]']                
                                                                                                  
 conv2d_1 (Conv2D)              (None, 16, 256, 64)  18496       ['conv2d[0][0]']                 
                                                                                                  
 conv2d_2 (Conv2D)              (None, 16, 256, 64)  36928       ['conv2d_1[0][0]']               
                                                                                                  
 max_pooling2d (MaxPooling2D)   (None, 8, 128, 64)   0           ['conv2d_2[0][0]']               
                                                                                                  
 conv2d_3 (Conv2D)              (None, 8, 128, 64)   36928       ['max_pooling2d[0][0]']          
                                                                                                  
 max_pooling2d_1 (MaxPooling2D)  (None, 4, 64, 64)   0           ['conv2d_3[0][0]']               
                                                                                                  
 conv2d_4 (Conv2D)              (None, 4, 64, 64)    36928       ['max_pooling2d_1[0][0]']        
                                                                                                  
 max_pooling2d_2 (MaxPooling2D)  (None, 2, 32, 64)   0           ['conv2d_4[0][0]']               
                                                                                                  
 flatten (Flatten)              (None, 4096)         0           ['max_pooling2d_2[0][0]']        
                                                                                                  
 dense (Dense)                  (None, 4096)         16781312    ['flatten[0][0]']                
                                                                                                  
 z_mean (Dense)                 (None, 2)            8194        ['dense[0][0]']                  
                                                                                                  
 z_log_var (Dense)              (None, 2)            8194        ['dense[0][0]']                  
                                                                                                  
 sampling (Sampling)            (None, 2)            0           ['z_mean[0][0]',                 
                                                                  'z_log_var[0][0]']              
                                                                                                  
==================================================================================================
Total params: 16,927,300
Trainable params: 16,927,300
Non-trainable params: 0
__________________________________________________________________________________________________
None
Model: "decoder"
_________________________________________________________________
 Layer (type)                Output Shape              Param #   
=================================================================
 input_2 (InputLayer)        [(None, 2)]               0         
                                                                 
 dense_1 (Dense)             (None, 4096)              12288     
                                                                 
 reshape (Reshape)           (None, 2, 32, 64)         0         
                                                                 
 conv2d_transpose (Conv2DTra  (None, 2, 32, 64)        36928     
 nspose)                                                         
                                                                 
 up_sampling2d (UpSampling2D  (None, 4, 64, 64)        0         
 )                                                               
                                                                 
 conv2d_transpose_1 (Conv2DT  (None, 4, 64, 64)        36928     
 ranspose)                                                       
                                                                 
 up_sampling2d_1 (UpSampling  (None, 8, 128, 64)       0         
 2D)                                                             
                                                                 
 conv2d_transpose_2 (Conv2DT  (None, 8, 128, 64)       36928     
 ranspose)                                                       
                                                                 
 up_sampling2d_2 (UpSampling  (None, 16, 256, 64)      0         
 2D)                                                             
                                                                 
 conv2d_transpose_3 (Conv2DT  (None, 32, 512, 64)      36928     
 ranspose)                                                       
                                                                 
 conv2d_transpose_4 (Conv2DT  (None, 64, 1024, 32)     18464     
 ranspose)                                                       
                                                                 
 conv2d_transpose_5 (Conv2DT  (None, 64, 1024, 1)      289       
 ranspose)                                                       
                                                                 
=================================================================
Total params: 178,753
Trainable params: 178,753
Non-trainable params: 0
_________________________________________________________________
None
Epoch 1/50
2022-04-20 20:05:12.829349: I tensorflow/stream_executor/cuda/cuda_dnn.cc:368] Loaded cuDNN version 8101
…
