…
 input_1 (InputLayer)           [(None, 64, 1024, 1  0           []                               
                                )]                                                                
                                                                                                  
 conv2d (Conv2D)                (None, 64, 1024, 32  320         ['input_1[0][0]']                
                                )                                                                 
                                                                                                  
 max_pooling2d (MaxPooling2D)   (None, 32, 512, 32)  0           ['conv2d[0][0]']                 
                                                                                                  
 conv2d_1 (Conv2D)              (None, 32, 512, 64)  18496       ['max_pooling2d[0][0]']          
                                                                                                  
 max_pooling2d_1 (MaxPooling2D)  (None, 16, 256, 64)  0          ['conv2d_1[0][0]']               
                                                                                                  
 conv2d_2 (Conv2D)              (None, 16, 256, 64)  36928       ['max_pooling2d_1[0][0]']        
                                                                                                  
 max_pooling2d_2 (MaxPooling2D)  (None, 8, 128, 64)  0           ['conv2d_2[0][0]']               
                                                                                                  
 conv2d_3 (Conv2D)              (None, 8, 128, 64)   36928       ['max_pooling2d_2[0][0]']        
                                                                                                  
 max_pooling2d_3 (MaxPooling2D)  (None, 4, 64, 64)   0           ['conv2d_3[0][0]']               
                                                                                                  
 flatten (Flatten)              (None, 16384)        0           ['max_pooling2d_3[0][0]']        
                                                                                                  
 dense (Dense)                  (None, 16384)        268451840   ['flatten[0][0]']                
                                                                                                  
 z_mean (Dense)                 (None, 2)            32770       ['dense[0][0]']                  
                                                                                                  
 z_log_var (Dense)              (None, 2)            32770       ['dense[0][0]']                  
                                                                                                  
 sampling (Sampling)            (None, 2)            0           ['z_mean[0][0]',                 
                                                                  'z_log_var[0][0]']              
                                                                                                  
==================================================================================================
Total params: 268,610,052
Trainable params: 268,610,052
Non-trainable params: 0
__________________________________________________________________________________________________
None
Model: "decoder"
_________________________________________________________________
 Layer (type)                Output Shape              Param #   
=================================================================
 input_2 (InputLayer)        [(None, 2)]               0         
                                                                 
 dense_1 (Dense)             (None, 16384)             49152     
                                                                 
 reshape (Reshape)           (None, 4, 64, 64)         0         
                                                                 
 conv2d_4 (Conv2D)           (None, 4, 64, 64)         36928     
                                                                 
 up_sampling2d (UpSampling2D  (None, 8, 128, 64)       0         
 )                                                               
                                                                 
 conv2d_5 (Conv2D)           (None, 8, 128, 64)        36928     
                                                                 
 up_sampling2d_1 (UpSampling  (None, 16, 256, 64)      0         
 2D)                                                             
                                                                 
 conv2d_6 (Conv2D)           (None, 16, 256, 64)       36928     
                                                                 
 up_sampling2d_2 (UpSampling  (None, 32, 512, 64)      0         
 2D)                                                             
                                                                 
 conv2d_7 (Conv2D)           (None, 32, 512, 32)       18464     
                                                                 
 up_sampling2d_3 (UpSampling  (None, 64, 1024, 32)     0         
 2D)                                                             
                                                                 
 conv2d_transpose_1 (Conv2DT  (None, 64, 1024, 1)      289       
 ranspose)                                                       
                                                                 
=================================================================
Total params: 178,689
Trainable params: 178,689
Non-trainable params: 0
_________________________________________________________________
None
Epoch 1/100
2022-04-20 21:39:47.731162: I tensorflow/stream_executor/cuda/cuda_dnn.cc:368] Loaded cuDNN version 8101
…
