…
__________________________________________________________________________________________________
 Layer (type)                   Output Shape         Param #     Connected to                     
==================================================================================================
 input_1 (InputLayer)           [(None, 64, 1024, 1  0           []                               
                                )]                                                                
                                                                                                  
 conv2d (Conv2D)                (None, 32, 512, 32)  320         ['input_1[0][0]']                
                                                                                                  
 conv2d_1 (Conv2D)              (None, 32, 512, 64)  18496       ['conv2d[0][0]']                 
                                                                                                  
 max_pooling2d (MaxPooling2D)   (None, 16, 256, 64)  0           ['conv2d_1[0][0]']               
                                                                                                  
 conv2d_2 (Conv2D)              (None, 16, 256, 64)  36928       ['max_pooling2d[0][0]']          
                                                                                                  
 max_pooling2d_1 (MaxPooling2D)  (None, 8, 128, 64)  0           ['conv2d_2[0][0]']               
                                                                                                  
 conv2d_3 (Conv2D)              (None, 8, 128, 64)   36928       ['max_pooling2d_1[0][0]']        
                                                                                                  
 max_pooling2d_2 (MaxPooling2D)  (None, 4, 64, 64)   0           ['conv2d_3[0][0]']               
                                                                                                  
 conv2d_4 (Conv2D)              (None, 4, 64, 64)    36928       ['max_pooling2d_2[0][0]']        
                                                                                                  
 max_pooling2d_3 (MaxPooling2D)  (None, 2, 32, 64)   0           ['conv2d_4[0][0]']               
                                                                                                  
 conv2d_5 (Conv2D)              (None, 2, 32, 64)    36928       ['max_pooling2d_3[0][0]']        
                                                                                                  
 max_pooling2d_4 (MaxPooling2D)  (None, 1, 16, 64)   0           ['conv2d_5[0][0]']               
                                                                                                  
 flatten (Flatten)              (None, 1024)         0           ['max_pooling2d_4[0][0]']        
                                                                                                  
 dense (Dense)                  (None, 1024)         1049600     ['flatten[0][0]']                
                                                                                                  
 z_mean (Dense)                 (None, 2)            2050        ['dense[0][0]']                  
                                                                                                  
 z_log_var (Dense)              (None, 2)            2050        ['dense[0][0]']                  
                                                                                                  
 sampling (Sampling)            (None, 2)            0           ['z_mean[0][0]',                 
                                                                  'z_log_var[0][0]']              
                                                                                                  
==================================================================================================
Total params: 1,220,228
Trainable params: 1,220,228
Non-trainable params: 0
__________________________________________________________________________________________________
None
Model: "decoder"
_________________________________________________________________
 Layer (type)                Output Shape              Param #   
=================================================================
 input_2 (InputLayer)        [(None, 2)]               0         
                                                                 
 dense_1 (Dense)             (None, 1024)              3072      
                                                                 
 reshape (Reshape)           (None, 1, 16, 64)         0         
                                                                 
 conv2d_6 (Conv2D)           (None, 1, 16, 64)         36928     
                                                                 
 up_sampling2d (UpSampling2D  (None, 2, 32, 64)        0         
 )                                                               
                                                                 
 conv2d_7 (Conv2D)           (None, 2, 32, 64)         36928     
                                                                 
 up_sampling2d_1 (UpSampling  (None, 4, 64, 64)        0         
 2D)                                                             
                                                                 
 conv2d_8 (Conv2D)           (None, 4, 64, 64)         36928     
                                                                 
 up_sampling2d_2 (UpSampling  (None, 8, 128, 64)       0         
 2D)                                                             
                                                                 
 conv2d_9 (Conv2D)           (None, 8, 128, 64)        36928     
                                                                 
 up_sampling2d_3 (UpSampling  (None, 16, 256, 64)      0         
 2D)                                                             
                                                                 
 conv2d_10 (Conv2D)          (None, 16, 256, 64)       36928     
                                                                 
 up_sampling2d_4 (UpSampling  (None, 32, 512, 64)      0         
 2D)                                                             
                                                                 
 conv2d_transpose (Conv2DTra  (None, 64, 1024, 32)     18464     
 nspose)                                                         
                                                                 
 conv2d_transpose_1 (Conv2DT  (None, 64, 1024, 1)      289       
 ranspose)                                                       
                                                                 
=================================================================
Total params: 206,465
Trainable params: 206,465
Non-trainable params: 0
_________________________________________________________________
None
Epoch 1/25
181/181 [==============================] - 1141s 6s/step - loss: 41161.6794 - reconstruction_loss: 39550.8906 - kl_loss: 6.1534 
…
