…
__________________________________________________________________________________________________
 Layer (type)                   Output Shape         Param #     Connected to                     
==================================================================================================
 input_1 (InputLayer)           [(None, 64, 1024, 1  0           []                               
                                )]                                                                
                                                                                                  
 conv2d (Conv2D)                (None, 64, 1024, 8)  208         ['input_1[0][0]']                
                                                                                                  
 max_pooling2d (MaxPooling2D)   (None, 32, 512, 8)   0           ['conv2d[0][0]']                 
                                                                                                  
 conv2d_1 (Conv2D)              (None, 32, 512, 8)   584         ['max_pooling2d[0][0]']          
                                                                                                  
 max_pooling2d_1 (MaxPooling2D)  (None, 16, 256, 8)  0           ['conv2d_1[0][0]']               
                                                                                                  
 conv2d_2 (Conv2D)              (None, 16, 256, 8)   584         ['max_pooling2d_1[0][0]']        
                                                                                                  
 max_pooling2d_2 (MaxPooling2D)  (None, 8, 128, 8)   0           ['conv2d_2[0][0]']               
                                                                                                  
 conv2d_3 (Conv2D)              (None, 8, 128, 8)    584         ['max_pooling2d_2[0][0]']        
                                                                                                  
 max_pooling2d_3 (MaxPooling2D)  (None, 4, 64, 8)    0           ['conv2d_3[0][0]']               
                                                                                                  
 conv2d_4 (Conv2D)              (None, 4, 64, 8)     584         ['max_pooling2d_3[0][0]']        
                                                                                                  
 max_pooling2d_4 (MaxPooling2D)  (None, 2, 32, 8)    0           ['conv2d_4[0][0]']               
                                                                                                  
 flatten (Flatten)              (None, 512)          0           ['max_pooling2d_4[0][0]']        
                                                                                                  
 dense (Dense)                  (None, 512)          262656      ['flatten[0][0]']                
                                                                                                  
 z_mean (Dense)                 (None, 2)            1026        ['dense[0][0]']                  
                                                                                                  
 z_log_var (Dense)              (None, 2)            1026        ['dense[0][0]']                  
                                                                                                  
 sampling (Sampling)            (None, 2)            0           ['z_mean[0][0]',                 
                                                                  'z_log_var[0][0]']              
                                                                                                  
==================================================================================================
Total params: 267,252
Trainable params: 267,252
Non-trainable params: 0
__________________________________________________________________________________________________
None
Model: "decoder"
_________________________________________________________________
 Layer (type)                Output Shape              Param #   
=================================================================
 input_2 (InputLayer)        [(None, 2)]               0         
                                                                 
 dense_1 (Dense)             (None, 512)               1536      
                                                                 
 reshape (Reshape)           (None, 2, 32, 8)          0         
                                                                 
 conv2d_5 (Conv2D)           (None, 2, 32, 8)          584       
                                                                 
 up_sampling2d (UpSampling2D  (None, 4, 64, 8)         0         
 )                                                               
                                                                 
 conv2d_6 (Conv2D)           (None, 4, 64, 8)          584       
                                                                 
 up_sampling2d_1 (UpSampling  (None, 8, 128, 8)        0         
 2D)                                                             
                                                                 
 conv2d_7 (Conv2D)           (None, 8, 128, 8)         584       
                                                                 
 up_sampling2d_2 (UpSampling  (None, 16, 256, 8)       0         
 2D)                                                             
                                                                 
 conv2d_8 (Conv2D)           (None, 16, 256, 8)        584       
                                                                 
 up_sampling2d_3 (UpSampling  (None, 32, 512, 8)       0         
 2D)                                                             
                                                                 
 conv2d_9 (Conv2D)           (None, 32, 512, 8)        584       
                                                                 
 up_sampling2d_4 (UpSampling  (None, 64, 1024, 8)      0         
 2D)                                                             
                                                                 
 conv2d_10 (Conv2D)          (None, 64, 1024, 1)       73        
                                                                 
=================================================================
Total params: 4,529
Trainable params: 4,529
Non-trainable params: 0
_________________________________________________________________
None
Epoch 1/1000
2022-04-29 10:19:01.047362: I tensorflow/stream_executor/cuda/cuda_dnn.cc:368] Loaded cuDNN version 8101
2022-04-29 10:19:03.333772: I tensorflow/stream_executor/cuda/cuda_blas.cc:1786] TensorFloat-32 will be used for the matrix multiplication. This will only be logged once.
…
