…
2022-04-29 17:36:57.625047: I tensorflow/core/common_runtime/gpu/gpu_device.cc:1525] Created device /job:localhost/replica:0/task:0/device:GPU:2 with 10417 MB memory:  -> device: 2, name: NVIDIA GeForce GTX 1080 Ti, pci bus id: 0000:84:00.0, compute capability: 6.1
2022-04-29 17:36:57.625567: I tensorflow/core/common_runtime/gpu/gpu_device.cc:1525] Created device /job:localhost/replica:0/task:0/device:GPU:3 with 10417 MB memory:  -> device: 3, name: NVIDIA GeForce GTX 1080 Ti, pci bus id: 0000:8a:00.0, compute capability: 6.1
Model: "sequential"
_________________________________________________________________
 Layer (type)                Output Shape              Param #   
=================================================================
 conv2d (Conv2D)             (None, 64, 1024, 64)      1664      
                                                                 
 batch_normalization (BatchN  (None, 64, 1024, 64)     256       
 ormalization)                                                   
                                                                 
 max_pooling2d (MaxPooling2D  (None, 32, 512, 64)      0         
 )                                                               
                                                                 
 conv2d_1 (Conv2D)           (None, 32, 512, 32)       18464     
                                                                 
 batch_normalization_1 (Batc  (None, 32, 512, 32)      128       
 hNormalization)                                                 
                                                                 
 max_pooling2d_1 (MaxPooling  (None, 16, 256, 32)      0         
 2D)                                                             
                                                                 
 conv2d_2 (Conv2D)           (None, 16, 256, 16)       4624      
                                                                 
 batch_normalization_2 (Batc  (None, 16, 256, 16)      64        
 hNormalization)                                                 
                                                                 
 max_pooling2d_2 (MaxPooling  (None, 8, 128, 16)       0         
 2D)                                                             
                                                                 
 conv2d_3 (Conv2D)           (None, 8, 128, 8)         1160      
                                                                 
 batch_normalization_3 (Batc  (None, 8, 128, 8)        32        
 hNormalization)                                                 
                                                                 
 max_pooling2d_3 (MaxPooling  (None, 4, 64, 8)         0         
 2D)                                                             
                                                                 
 flatten (Flatten)           (None, 2048)              0         
                                                                 
 dense (Dense)               (None, 2048)              4196352   
                                                                 
 dense_1 (Dense)             (None, 2048)              4196352   
                                                                 
 reshape (Reshape)           (None, 4, 64, 8)          0         
                                                                 
 conv2d_4 (Conv2D)           (None, 4, 64, 8)          584       
                                                                 
 batch_normalization_4 (Batc  (None, 4, 64, 8)         32        
 hNormalization)                                                 
                                                                 
 up_sampling2d (UpSampling2D  (None, 8, 128, 8)        0         
 )                                                               
                                                                 
 conv2d_5 (Conv2D)           (None, 8, 128, 16)        1168      
                                                                 
 batch_normalization_5 (Batc  (None, 8, 128, 16)       64        
 hNormalization)                                                 
                                                                 
 up_sampling2d_1 (UpSampling  (None, 16, 256, 16)      0         
 2D)                                                             
                                                                 
 conv2d_6 (Conv2D)           (None, 16, 256, 32)       4640      
                                                                 
 batch_normalization_6 (Batc  (None, 16, 256, 32)      128       
 hNormalization)                                                 
                                                                 
 up_sampling2d_2 (UpSampling  (None, 32, 512, 32)      0         
 2D)                                                             
                                                                 
 conv2d_7 (Conv2D)           (None, 32, 512, 64)       51264     
                                                                 
 batch_normalization_7 (Batc  (None, 32, 512, 64)      256       
 hNormalization)                                                 
                                                                 
 up_sampling2d_3 (UpSampling  (None, 64, 1024, 64)     0         
 2D)                                                             
                                                                 
 conv2d_8 (Conv2D)           (None, 64, 1024, 1)       577       
                                                                 
=================================================================
Total params: 8,477,809
Trainable params: 8,477,329
Non-trainable params: 480
_________________________________________________________________
None
Epoch 1/200
2022-04-29 17:37:02.425989: I tensorflow/stream_executor/cuda/cuda_dnn.cc:368] Loaded cuDNN version 8101
…
