…
2022-05-01 21:24:31.030497: I tensorflow/core/common_runtime/gpu/gpu_device.cc:1525] Created device /job:localhost/replica:0/task:0/device:GPU:2 with 10417 MB memory:  -> device: 2, name: NVIDIA GeForce GTX 1080 Ti, pci bus id: 0000:84:00.0, compute capability: 6.1
2022-05-01 21:24:31.032058: I tensorflow/core/common_runtime/gpu/gpu_device.cc:1525] Created device /job:localhost/replica:0/task:0/device:GPU:3 with 10417 MB memory:  -> device: 3, name: NVIDIA GeForce GTX 1080 Ti, pci bus id: 0000:8a:00.0, compute capability: 6.1
Model: "sequential"
_________________________________________________________________
 Layer (type)                Output Shape              Param #   
=================================================================
 conv2d (Conv2D)             (None, 16, 256, 64)       7808      
                                                                 
 batch_normalization (BatchN  (None, 16, 256, 64)      256       
 ormalization)                                                   
                                                                 
 max_pooling2d (MaxPooling2D  (None, 8, 128, 64)       0         
 )                                                               
                                                                 
 conv2d_1 (Conv2D)           (None, 8, 128, 256)       409856    
                                                                 
 batch_normalization_1 (Batc  (None, 8, 128, 256)      1024      
 hNormalization)                                                 
                                                                 
 max_pooling2d_1 (MaxPooling  (None, 4, 64, 256)       0         
 2D)                                                             
                                                                 
 conv2d_2 (Conv2D)           (None, 4, 64, 384)        885120    
                                                                 
 batch_normalization_2 (Batc  (None, 4, 64, 384)       1536      
 hNormalization)                                                 
                                                                 
 conv2d_3 (Conv2D)           (None, 4, 64, 256)        884992    
                                                                 
 batch_normalization_3 (Batc  (None, 4, 64, 256)       1024      
 hNormalization)                                                 
                                                                 
 conv2d_4 (Conv2D)           (None, 4, 64, 128)        295040    
                                                                 
 batch_normalization_4 (Batc  (None, 4, 64, 128)       512       
 hNormalization)                                                 
                                                                 
 max_pooling2d_2 (MaxPooling  (None, 2, 32, 128)       0         
 2D)                                                             
                                                                 
 flatten (Flatten)           (None, 8192)              0         
                                                                 
 dense (Dense)               (None, 8192)              67117056  
                                                                 
 dense_1 (Dense)             (None, 8192)              67117056  
                                                                 
 reshape (Reshape)           (None, 2, 32, 128)        0         
                                                                 
 conv2d_transpose (Conv2DTra  (None, 4, 64, 128)       147584    
 nspose)                                                         
                                                                 
 batch_normalization_5 (Batc  (None, 4, 64, 128)       512       
 hNormalization)                                                 
                                                                 
 conv2d_transpose_1 (Conv2DT  (None, 8, 128, 256)      295168    
 ranspose)                                                       
                                                                 
 batch_normalization_6 (Batc  (None, 8, 128, 256)      1024      
 hNormalization)                                                 
                                                                 
 conv2d_transpose_2 (Conv2DT  (None, 16, 256, 384)     885120    
 ranspose)                                                       
                                                                 
 batch_normalization_7 (Batc  (None, 16, 256, 384)     1536      
 hNormalization)                                                 
                                                                 
 conv2d_transpose_3 (Conv2DT  (None, 32, 512, 256)     2457856   
 ranspose)                                                       
                                                                 
 batch_normalization_8 (Batc  (None, 32, 512, 256)     1024      
 hNormalization)                                                 
                                                                 
 conv2d_transpose_4 (Conv2DT  (None, 64, 1024, 64)     1982528   
 ranspose)                                                       
                                                                 
 batch_normalization_9 (Batc  (None, 64, 1024, 64)     256       
 hNormalization)                                                 
                                                                 
 conv2d_5 (Conv2D)           (None, 64, 1024, 1)       577       
                                                                 
=================================================================
Total params: 142,494,465
Trainable params: 142,490,113
Non-trainable params: 4,352
_________________________________________________________________
None
Epoch 1/50
2022-05-01 21:24:34.344970: I tensorflow/stream_executor/cuda/cuda_dnn.cc:368] Loaded cuDNN version 8101
…
